V0127 17:17:45.175000 1175001 site-packages/torch/_dynamo/output_graph.py:2190] {"dynamo_output_graph": {"sizes": {"l_input_ids_": ["s72"], "l_self_modules_embed_tokens_parameters_weight_": [64128, 4096], "l_self_modules_layers_modules_0_modules_input_layernorm_parameters_weight_": [4096], "l_self_modules_layers_modules_0_modules_self_attn_modules_qkv_proj_parameters_weight_": [3072, 4096], "l_self_modules_layers_modules_0_modules_self_attn_modules_rotary_emb_buffers_cos_sin_cache_": [131072, 128], "l_positions_": ["s72"], "l_self_modules_layers_modules_0_modules_self_attn_modules_o_proj_parameters_weight_": [4096, 2048], "l_self_modules_layers_modules_0_modules_post_attention_layernorm_parameters_weight_": [4096], "l_self_modules_layers_modules_0_modules_mlp_modules_gate_up_proj_parameters_weight_": [14336, 4096], "l_self_modules_layers_modules_0_modules_mlp_modules_down_proj_parameters_weight_": [4096, 7168], "l_self_modules_layers_modules_1_modules_input_layernorm_parameters_weight_": [4096], "l_self_modules_layers_modules_1_modules_self_attn_modules_qkv_proj_parameters_weight_": [3072, 4096], "l_self_modules_layers_modules_1_modules_self_attn_modules_o_proj_parameters_weight_": [4096, 2048], "l_self_modules_layers_modules_1_modules_post_attention_layernorm_parameters_weight_": [4096], "l_self_modules_layers_modules_1_modules_mlp_modules_gate_up_proj_parameters_weight_": [14336, 4096], "l_self_modules_layers_modules_1_modules_mlp_modules_down_proj_parameters_weight_": [4096, 7168], "l_self_modules_layers_modules_2_modules_input_layernorm_parameters_weight_": [4096], "l_self_modules_layers_modules_2_modules_self_attn_modules_qkv_proj_parameters_weight_": [3072, 4096], "l_self_modules_layers_modules_2_modules_self_attn_modules_o_proj_parameters_weight_": [4096, 2048], "l_self_modules_layers_modules_2_modules_post_attention_layernorm_parameters_weight_": [4096], "l_self_modules_layers_modules_2_modules_mlp_modules_gate_up_proj_parameters_weight_": [14336, 4096], "l_self_modules_layers_modules_2_modules_mlp_modules_down_proj_parameters_weight_": [4096, 7168], "l_self_modules_layers_modules_3_modules_input_layernorm_parameters_weight_": [4096], "l_self_modules_layers_modules_3_modules_self_attn_modules_qkv_proj_parameters_weight_": [3072, 4096], "l_self_modules_layers_modules_3_modules_self_attn_modules_o_proj_parameters_weight_": [4096, 2048], "l_self_modules_layers_modules_3_modules_post_attention_layernorm_parameters_weight_": [4096], "l_self_modules_layers_modules_3_modules_mlp_modules_gate_up_proj_parameters_weight_": [14336, 4096], "l_self_modules_layers_modules_3_modules_mlp_modules_down_proj_parameters_weight_": [4096, 7168], "l_self_modules_layers_modules_4_modules_input_layernorm_parameters_weight_": [4096], "l_self_modules_layers_modules_4_modules_self_attn_modules_qkv_proj_parameters_weight_": [3072, 4096], "l_self_modules_layers_modules_4_modules_self_attn_modules_o_proj_parameters_weight_": [4096, 2048], "l_self_modules_layers_modules_4_modules_post_attention_layernorm_parameters_weight_": [4096], "l_self_modules_layers_modules_4_modules_mlp_modules_gate_up_proj_parameters_weight_": [14336, 4096], "l_self_modules_layers_modules_4_modules_mlp_modules_down_proj_parameters_weight_": [4096, 7168], "l_self_modules_layers_modules_5_modules_input_layernorm_parameters_weight_": [4096], "l_self_modules_layers_modules_5_modules_self_attn_modules_qkv_proj_parameters_weight_": [3072, 4096], "l_self_modules_layers_modules_5_modules_self_attn_modules_o_proj_parameters_weight_": [4096, 2048], "l_self_modules_layers_modules_5_modules_post_attention_layernorm_parameters_weight_": [4096], "l_self_modules_layers_modules_5_modules_mlp_modules_gate_up_proj_parameters_weight_": [14336, 4096], "l_self_modules_layers_modules_5_modules_mlp_modules_down_proj_parameters_weight_": [4096, 7168], "l_self_modules_layers_modules_6_modules_input_layernorm_parameters_weight_": [4096], "l_self_modules_layers_modules_6_modules_self_attn_modules_qkv_proj_parameters_weight_": [3072, 4096], "l_self_modules_layers_modules_6_modules_self_attn_modules_o_proj_parameters_weight_": [4096, 2048], "l_self_modules_layers_modules_6_modules_post_attention_layernorm_parameters_weight_": [4096], "l_self_modules_layers_modules_6_modules_mlp_modules_gate_up_proj_parameters_weight_": [14336, 4096], "l_self_modules_layers_modules_6_modules_mlp_modules_down_proj_parameters_weight_": [4096, 7168], "l_self_modules_layers_modules_7_modules_input_layernorm_parameters_weight_": [4096], "l_self_modules_layers_modules_7_modules_self_attn_modules_qkv_proj_parameters_weight_": [3072, 4096], "l_self_modules_layers_modules_7_modules_self_attn_modules_o_proj_parameters_weight_": [4096, 2048], "l_self_modules_layers_modules_7_modules_post_attention_layernorm_parameters_weight_": [4096], "l_self_modules_layers_modules_7_modules_mlp_modules_gate_up_proj_parameters_weight_": [14336, 4096], "l_self_modules_layers_modules_7_modules_mlp_modules_down_proj_parameters_weight_": [4096, 7168], "l_self_modules_layers_modules_8_modules_input_layernorm_parameters_weight_": [4096], "l_self_modules_layers_modules_8_modules_self_attn_modules_qkv_proj_parameters_weight_": [3072, 4096], "l_self_modules_layers_modules_8_modules_self_attn_modules_o_proj_parameters_weight_": [4096, 2048], "l_self_modules_layers_modules_8_modules_post_attention_layernorm_parameters_weight_": [4096], "l_self_modules_layers_modules_8_modules_mlp_modules_gate_up_proj_parameters_weight_": [14336, 4096], "l_self_modules_layers_modules_8_modules_mlp_modules_down_proj_parameters_weight_": [4096, 7168], "l_self_modules_layers_modules_9_modules_input_layernorm_parameters_weight_": [4096], "l_self_modules_layers_modules_9_modules_self_attn_modules_qkv_proj_parameters_weight_": [3072, 4096], "l_self_modules_layers_modules_9_modules_self_attn_modules_o_proj_parameters_weight_": [4096, 2048], "l_self_modules_layers_modules_9_modules_post_attention_layernorm_parameters_weight_": [4096], "l_self_modules_layers_modules_9_modules_mlp_modules_gate_up_proj_parameters_weight_": [14336, 4096], "l_self_modules_layers_modules_9_modules_mlp_modules_down_proj_parameters_weight_": [4096, 7168], "l_self_modules_layers_modules_10_modules_input_layernorm_parameters_weight_": [4096], "l_self_modules_layers_modules_10_modules_self_attn_modules_qkv_proj_parameters_weight_": [3072, 4096], "l_self_modules_layers_modules_10_modules_self_attn_modules_o_proj_parameters_weight_": [4096, 2048], "l_self_modules_layers_modules_10_modules_post_attention_layernorm_parameters_weight_": [4096], "l_self_modules_layers_modules_10_modules_mlp_modules_gate_up_proj_parameters_weight_": [14336, 4096], "l_self_modules_layers_modules_10_modules_mlp_modules_down_proj_parameters_weight_": [4096, 7168], "l_self_modules_layers_modules_11_modules_input_layernorm_parameters_weight_": [4096], "l_self_modules_layers_modules_11_modules_self_attn_modules_qkv_proj_parameters_weight_": [3072, 4096], "l_self_modules_layers_modules_11_modules_self_attn_modules_o_proj_parameters_weight_": [4096, 2048], "l_self_modules_layers_modules_11_modules_post_attention_layernorm_parameters_weight_": [4096], "l_self_modules_layers_modules_11_modules_mlp_modules_gate_up_proj_parameters_weight_": [14336, 4096], "l_self_modules_layers_modules_11_modules_mlp_modules_down_proj_parameters_weight_": [4096, 7168], "l_self_modules_layers_modules_12_modules_input_layernorm_parameters_weight_": [4096], "l_self_modules_layers_modules_12_modules_self_attn_modules_qkv_proj_parameters_weight_": [3072, 4096], "l_self_modules_layers_modules_12_modules_self_attn_modules_o_proj_parameters_weight_": [4096, 2048], "l_self_modules_layers_modules_12_modules_post_attention_layernorm_parameters_weight_": [4096], "l_self_modules_layers_modules_12_modules_mlp_modules_gate_up_proj_parameters_weight_": [14336, 4096], "l_self_modules_layers_modules_12_modules_mlp_modules_down_proj_parameters_weight_": [4096, 7168], "l_self_modules_layers_modules_13_modules_input_layernorm_parameters_weight_": [4096], "l_self_modules_layers_modules_13_modules_self_attn_modules_qkv_proj_parameters_weight_": [3072, 4096], "l_self_modules_layers_modules_13_modules_self_attn_modules_o_proj_parameters_weight_": [4096, 2048], "l_self_modules_layers_modules_13_modules_post_attention_layernorm_parameters_weight_": [4096], "l_self_modules_layers_modules_13_modules_mlp_modules_gate_up_proj_parameters_weight_": [14336, 4096], "l_self_modules_layers_modules_13_modules_mlp_modules_down_proj_parameters_weight_": [4096, 7168], "l_self_modules_layers_modules_14_modules_input_layernorm_parameters_weight_": [4096], "l_self_modules_layers_modules_14_modules_self_attn_modules_qkv_proj_parameters_weight_": [3072, 4096], "l_self_modules_layers_modules_14_modules_self_attn_modules_o_proj_parameters_weight_": [4096, 2048], "l_self_modules_layers_modules_14_modules_post_attention_layernorm_parameters_weight_": [4096], "l_self_modules_layers_modules_14_modules_mlp_modules_gate_up_proj_parameters_weight_": [14336, 4096], "l_self_modules_layers_modules_14_modules_mlp_modules_down_proj_parameters_weight_": [4096, 7168], "l_self_modules_layers_modules_15_modules_input_layernorm_parameters_weight_": [4096], "l_self_modules_layers_modules_15_modules_self_attn_modules_qkv_proj_parameters_weight_": [3072, 4096], "l_self_modules_layers_modules_15_modules_self_attn_modules_o_proj_parameters_weight_": [4096, 2048], "l_self_modules_layers_modules_15_modules_post_attention_layernorm_parameters_weight_": [4096], "l_self_modules_layers_modules_15_modules_mlp_modules_gate_up_proj_parameters_weight_": [14336, 4096], "l_self_modules_layers_modules_15_modules_mlp_modules_down_proj_parameters_weight_": [4096, 7168], "l_self_modules_layers_modules_16_modules_input_layernorm_parameters_weight_": [4096], "l_self_modules_layers_modules_16_modules_self_attn_modules_qkv_proj_parameters_weight_": [3072, 4096], "l_self_modules_layers_modules_16_modules_self_attn_modules_o_proj_parameters_weight_": [4096, 2048], "l_self_modules_layers_modules_16_modules_post_attention_layernorm_parameters_weight_": [4096], "l_self_modules_layers_modules_16_modules_mlp_modules_gate_up_proj_parameters_weight_": [14336, 4096], "l_self_modules_layers_modules_16_modules_mlp_modules_down_proj_parameters_weight_": [4096, 7168], "l_self_modules_layers_modules_17_modules_input_layernorm_parameters_weight_": [4096], "l_self_modules_layers_modules_17_modules_self_attn_modules_qkv_proj_parameters_weight_": [3072, 4096], "l_self_modules_layers_modules_17_modules_self_attn_modules_o_proj_parameters_weight_": [4096, 2048], "l_self_modules_layers_modules_17_modules_post_attention_layernorm_parameters_weight_": [4096], "l_self_modules_layers_modules_17_modules_mlp_modules_gate_up_proj_parameters_weight_": [14336, 4096], "l_self_modules_layers_modules_17_modules_mlp_modules_down_proj_parameters_weight_": [4096, 7168], "l_self_modules_layers_modules_18_modules_input_layernorm_parameters_weight_": [4096], "l_self_modules_layers_modules_18_modules_self_attn_modules_qkv_proj_parameters_weight_": [3072, 4096], "l_self_modules_layers_modules_18_modules_self_attn_modules_o_proj_parameters_weight_": [4096, 2048], "l_self_modules_layers_modules_18_modules_post_attention_layernorm_parameters_weight_": [4096], "l_self_modules_layers_modules_18_modules_mlp_modules_gate_up_proj_parameters_weight_": [14336, 4096], "l_self_modules_layers_modules_18_modules_mlp_modules_down_proj_parameters_weight_": [4096, 7168], "l_self_modules_layers_modules_19_modules_input_layernorm_parameters_weight_": [4096], "l_self_modules_layers_modules_19_modules_self_attn_modules_qkv_proj_parameters_weight_": [3072, 4096], "l_self_modules_layers_modules_19_modules_self_attn_modules_o_proj_parameters_weight_": [4096, 2048], "l_self_modules_layers_modules_19_modules_post_attention_layernorm_parameters_weight_": [4096], "l_self_modules_layers_modules_19_modules_mlp_modules_gate_up_proj_parameters_weight_": [14336, 4096], "l_self_modules_layers_modules_19_modules_mlp_modules_down_proj_parameters_weight_": [4096, 7168], "l_self_modules_layers_modules_20_modules_input_layernorm_parameters_weight_": [4096], "l_self_modules_layers_modules_20_modules_self_attn_modules_qkv_proj_parameters_weight_": [3072, 4096], "l_self_modules_layers_modules_20_modules_self_attn_modules_o_proj_parameters_weight_": [4096, 2048], "l_self_modules_layers_modules_20_modules_post_attention_layernorm_parameters_weight_": [4096], "l_self_modules_layers_modules_20_modules_mlp_modules_gate_up_proj_parameters_weight_": [14336, 4096], "l_self_modules_layers_modules_20_modules_mlp_modules_down_proj_parameters_weight_": [4096, 7168], "l_self_modules_layers_modules_21_modules_input_layernorm_parameters_weight_": [4096], "l_self_modules_layers_modules_21_modules_self_attn_modules_qkv_proj_parameters_weight_": [3072, 4096], "l_self_modules_layers_modules_21_modules_self_attn_modules_o_proj_parameters_weight_": [4096, 2048], "l_self_modules_layers_modules_21_modules_post_attention_layernorm_parameters_weight_": [4096], "l_self_modules_layers_modules_21_modules_mlp_modules_gate_up_proj_parameters_weight_": [14336, 4096], "l_self_modules_layers_modules_21_modules_mlp_modules_down_proj_parameters_weight_": [4096, 7168], "l_self_modules_layers_modules_22_modules_input_layernorm_parameters_weight_": [4096], "l_self_modules_layers_modules_22_modules_self_attn_modules_qkv_proj_parameters_weight_": [3072, 4096], "l_self_modules_layers_modules_22_modules_self_attn_modules_o_proj_parameters_weight_": [4096, 2048], "l_self_modules_layers_modules_22_modules_post_attention_layernorm_parameters_weight_": [4096], "l_self_modules_layers_modules_22_modules_mlp_modules_gate_up_proj_parameters_weight_": [14336, 4096], "l_self_modules_layers_modules_22_modules_mlp_modules_down_proj_parameters_weight_": [4096, 7168], "l_self_modules_layers_modules_23_modules_input_layernorm_parameters_weight_": [4096], "l_self_modules_layers_modules_23_modules_self_attn_modules_qkv_proj_parameters_weight_": [3072, 4096], "l_self_modules_layers_modules_23_modules_self_attn_modules_o_proj_parameters_weight_": [4096, 2048], "l_self_modules_layers_modules_23_modules_post_attention_layernorm_parameters_weight_": [4096], "l_self_modules_layers_modules_23_modules_mlp_modules_gate_up_proj_parameters_weight_": [14336, 4096], "l_self_modules_layers_modules_23_modules_mlp_modules_down_proj_parameters_weight_": [4096, 7168], "l_self_modules_layers_modules_24_modules_input_layernorm_parameters_weight_": [4096], "l_self_modules_layers_modules_24_modules_self_attn_modules_qkv_proj_parameters_weight_": [3072, 4096], "l_self_modules_layers_modules_24_modules_self_attn_modules_o_proj_parameters_weight_": [4096, 2048], "l_self_modules_layers_modules_24_modules_post_attention_layernorm_parameters_weight_": [4096], "l_self_modules_layers_modules_24_modules_mlp_modules_gate_up_proj_parameters_weight_": [14336, 4096], "l_self_modules_layers_modules_24_modules_mlp_modules_down_proj_parameters_weight_": [4096, 7168], "l_self_modules_layers_modules_25_modules_input_layernorm_parameters_weight_": [4096], "l_self_modules_layers_modules_25_modules_self_attn_modules_qkv_proj_parameters_weight_": [3072, 4096], "l_self_modules_layers_modules_25_modules_self_attn_modules_o_proj_parameters_weight_": [4096, 2048], "l_self_modules_layers_modules_25_modules_post_attention_layernorm_parameters_weight_": [4096], "l_self_modules_layers_modules_25_modules_mlp_modules_gate_up_proj_parameters_weight_": [14336, 4096], "l_self_modules_layers_modules_25_modules_mlp_modules_down_proj_parameters_weight_": [4096, 7168], "l_self_modules_layers_modules_26_modules_input_layernorm_parameters_weight_": [4096], "l_self_modules_layers_modules_26_modules_self_attn_modules_qkv_proj_parameters_weight_": [3072, 4096], "l_self_modules_layers_modules_26_modules_self_attn_modules_o_proj_parameters_weight_": [4096, 2048], "l_self_modules_layers_modules_26_modules_post_attention_layernorm_parameters_weight_": [4096], "l_self_modules_layers_modules_26_modules_mlp_modules_gate_up_proj_parameters_weight_": [14336, 4096], "l_self_modules_layers_modules_26_modules_mlp_modules_down_proj_parameters_weight_": [4096, 7168], "l_self_modules_layers_modules_27_modules_input_layernorm_parameters_weight_": [4096], "l_self_modules_layers_modules_27_modules_self_attn_modules_qkv_proj_parameters_weight_": [3072, 4096], "l_self_modules_layers_modules_27_modules_self_attn_modules_o_proj_parameters_weight_": [4096, 2048], "l_self_modules_layers_modules_27_modules_post_attention_layernorm_parameters_weight_": [4096], "l_self_modules_layers_modules_27_modules_mlp_modules_gate_up_proj_parameters_weight_": [14336, 4096], "l_self_modules_layers_modules_27_modules_mlp_modules_down_proj_parameters_weight_": [4096, 7168], "l_self_modules_layers_modules_28_modules_input_layernorm_parameters_weight_": [4096], "l_self_modules_layers_modules_28_modules_self_attn_modules_qkv_proj_parameters_weight_": [3072, 4096], "l_self_modules_layers_modules_28_modules_self_attn_modules_o_proj_parameters_weight_": [4096, 2048], "l_self_modules_layers_modules_28_modules_post_attention_layernorm_parameters_weight_": [4096], "l_self_modules_layers_modules_28_modules_mlp_modules_gate_up_proj_parameters_weight_": [14336, 4096], "l_self_modules_layers_modules_28_modules_mlp_modules_down_proj_parameters_weight_": [4096, 7168], "l_self_modules_layers_modules_29_modules_input_layernorm_parameters_weight_": [4096], "l_self_modules_layers_modules_29_modules_self_attn_modules_qkv_proj_parameters_weight_": [3072, 4096], "l_self_modules_layers_modules_29_modules_self_attn_modules_o_proj_parameters_weight_": [4096, 2048], "l_self_modules_layers_modules_29_modules_post_attention_layernorm_parameters_weight_": [4096], "l_self_modules_layers_modules_29_modules_mlp_modules_gate_up_proj_parameters_weight_": [14336, 4096], "l_self_modules_layers_modules_29_modules_mlp_modules_down_proj_parameters_weight_": [4096, 7168], "l_self_modules_layers_modules_30_modules_input_layernorm_parameters_weight_": [4096], "l_self_modules_layers_modules_30_modules_self_attn_modules_qkv_proj_parameters_weight_": [3072, 4096], "l_self_modules_layers_modules_30_modules_self_attn_modules_o_proj_parameters_weight_": [4096, 2048], "l_self_modules_layers_modules_30_modules_post_attention_layernorm_parameters_weight_": [4096], "l_self_modules_layers_modules_30_modules_mlp_modules_gate_up_proj_parameters_weight_": [14336, 4096], "l_self_modules_layers_modules_30_modules_mlp_modules_down_proj_parameters_weight_": [4096, 7168], "l_self_modules_layers_modules_31_modules_input_layernorm_parameters_weight_": [4096], "l_self_modules_layers_modules_31_modules_self_attn_modules_qkv_proj_parameters_weight_": [3072, 4096], "l_self_modules_layers_modules_31_modules_self_attn_modules_o_proj_parameters_weight_": [4096, 2048], "l_self_modules_layers_modules_31_modules_post_attention_layernorm_parameters_weight_": [4096], "l_self_modules_layers_modules_31_modules_mlp_modules_gate_up_proj_parameters_weight_": [14336, 4096], "l_self_modules_layers_modules_31_modules_mlp_modules_down_proj_parameters_weight_": [4096, 7168], "l_self_modules_norm_parameters_weight_": [4096], "ge": ["s72"], "lt": ["s72"], "org_vocab_mask": ["s72"], "ge_1": ["s72"], "lt_1": ["s72"], "added_vocab_mask": ["s72"], "mul": ["s72"], "mul_1": ["s72"], "valid_offset": ["s72"], "vocab_mask": ["s72"], "sub": ["s72"], "input_": ["s72"], "input_mask": ["s72"], "long": ["s72"], "output_parallel": ["s72", 4096], "unsqueeze": ["s72", 1], "masked_fill_": ["s72", 4096], "output": ["s72", 4096], "_get_data_attr": [4096], "x": ["s72", 4096], "pow_1": ["s72", 4096], "variance": ["s72", 1], "add_1": ["s72", 1], "rsqrt": ["s72", 1], "x_1": ["s72", 4096], "x_2": ["s72", 4096], "x_3": ["s72", 4096], "output_parallel_1": ["s72", 3072], "q": ["s72", 2048], "k": ["s72", 512], "v": ["s72", 512], "positions": ["s72"], "cos_sin": ["s72", 128], "cos": ["s72", 64], "sin": ["s72", 64], "query": ["s72", 16, 128], "query_rot": ["s72", 16, 128], "query_pass": ["s72", 16, 0], "unsqueeze_1": ["s72", 1, 64], "cos_1": ["s72", 1, 64], "unsqueeze_2": ["s72", 1, 64], "sin_1": ["s72", 1, 64], "x1": ["s72", 16, 64], "x2": ["s72", 16, 64], "mul_5": ["s72", 16, 64], "mul_6": ["s72", 16, 64], "o1": ["s72", 16, 64], "mul_7": ["s72", 16, 64], "mul_8": ["s72", 16, 64], "o2": ["s72", 16, 64], "output_1": ["s72", 16, 128], "cat_1": ["s72", 16, 128], "query_1": ["s72", 2048], "key": ["s72", 4, 128], "key_rot": ["s72", 4, 128], "key_pass": ["s72", 4, 0], "unsqueeze_3": ["s72", 1, 64], "cos_2": ["s72", 1, 64], "unsqueeze_4": ["s72", 1, 64], "sin_2": ["s72", 1, 64], "x1_1": ["s72", 4, 64], "x2_1": ["s72", 4, 64], "mul_9": ["s72", 4, 64], "mul_10": ["s72", 4, 64], "o1_1": ["s72", 4, 64], "mul_11": ["s72", 4, 64], "mul_12": ["s72", 4, 64], "o2_1": ["s72", 4, 64], "output_2": ["s72", 4, 128], "cat_3": ["s72", 4, 128], "key_1": ["s72", 512], "output_3": ["s72", 2048], "query_2": ["s72", 16, 128], "output_4": ["s72", 16, 128], "key_2": ["s72", 4, 128], "value": ["s72", 4, 128], "attn_output": ["s72", 2048], "output_parallel_2": ["s72", 4096], "output_5": ["s72", 4096], "_get_data_attr_1": [4096], "x_4": ["s72", 4096], "x_5": ["s72", 4096], "residual": ["s72", 4096], "pow_2": ["s72", 4096], "variance_1": ["s72", 1], "add_5": ["s72", 1], "rsqrt_1": ["s72", 1], "x_6": ["s72", 4096], "x_7": ["s72", 4096], "x_8": ["s72", 4096], "output_parallel_3": ["s72", 14336], "getitem_26": ["s72", 7168], "silu": ["s72", 7168], "getitem_27": ["s72", 7168], "x_9": ["s72", 7168], "output_parallel_4": ["s72", 4096], "output_6": ["s72", 4096], "_get_data_attr_2": [4096], "x_10": ["s72", 4096], "x_11": ["s72", 4096], "residual_1": ["s72", 4096], "pow_3": ["s72", 4096], "variance_2": ["s72", 1], "add_7": ["s72", 1], "rsqrt_2": ["s72", 1], "x_12": ["s72", 4096], "x_13": ["s72", 4096], "x_14": ["s72", 4096], "output_parallel_5": ["s72", 3072], "q_1": ["s72", 2048], "k_1": ["s72", 512], "v_1": ["s72", 512], "positions_1": ["s72"], "cos_sin_1": ["s72", 128], "cos_3": ["s72", 64], "sin_3": ["s72", 64], "query_3": ["s72", 16, 128], "query_rot_1": ["s72", 16, 128], "query_pass_1": ["s72", 16, 0], "unsqueeze_5": ["s72", 1, 64], "cos_4": ["s72", 1, 64], "unsqueeze_6": ["s72", 1, 64], "sin_4": ["s72", 1, 64], "x1_2": ["s72", 16, 64], "x2_2": ["s72", 16, 64], "mul_18": ["s72", 16, 64], "mul_19": ["s72", 16, 64], "o1_2": ["s72", 16, 64], "mul_20": ["s72", 16, 64], "mul_21": ["s72", 16, 64], "o2_2": ["s72", 16, 64], "output_7": ["s72", 16, 128], "cat_5": ["s72", 16, 128], "query_4": ["s72", 2048], "key_3": ["s72", 4, 128], "key_rot_1": ["s72", 4, 128], "key_pass_1": ["s72", 4, 0], "unsqueeze_7": ["s72", 1, 64], "cos_5": ["s72", 1, 64], "unsqueeze_8": ["s72", 1, 64], "sin_5": ["s72", 1, 64], "x1_3": ["s72", 4, 64], "x2_3": ["s72", 4, 64], "mul_22": ["s72", 4, 64], "mul_23": ["s72", 4, 64], "o1_3": ["s72", 4, 64], "mul_24": ["s72", 4, 64], "mul_25": ["s72", 4, 64], "o2_3": ["s72", 4, 64], "output_8": ["s72", 4, 128], "cat_7": ["s72", 4, 128], "key_4": ["s72", 512], "output_9": ["s72", 2048], "query_5": ["s72", 16, 128], "output_10": ["s72", 16, 128], "key_5": ["s72", 4, 128], "value_1": ["s72", 4, 128], "attn_output_1": ["s72", 2048], "output_parallel_6": ["s72", 4096], "output_11": ["s72", 4096], "_get_data_attr_3": [4096], "x_15": ["s72", 4096], "x_16": ["s72", 4096], "residual_2": ["s72", 4096], "pow_4": ["s72", 4096], "variance_3": ["s72", 1], "add_11": ["s72", 1], "rsqrt_3": ["s72", 1], "x_17": ["s72", 4096], "x_18": ["s72", 4096], "x_19": ["s72", 4096], "output_parallel_7": ["s72", 14336], "getitem_54": ["s72", 7168], "silu_1": ["s72", 7168], "getitem_55": ["s72", 7168], "x_20": ["s72", 7168], "output_parallel_8": ["s72", 4096], "output_12": ["s72", 4096], "_get_data_attr_4": [4096], "x_21": ["s72", 4096], "x_22": ["s72", 4096], "residual_3": ["s72", 4096], "pow_5": ["s72", 4096], "variance_4": ["s72", 1], "add_13": ["s72", 1], "rsqrt_4": ["s72", 1], "x_23": ["s72", 4096], "x_24": ["s72", 4096], "x_25": ["s72", 4096], "output_parallel_9": ["s72", 3072], "q_2": ["s72", 2048], "k_2": ["s72", 512], "v_2": ["s72", 512], "positions_2": ["s72"], "cos_sin_2": ["s72", 128], "cos_6": ["s72", 64], "sin_6": ["s72", 64], "query_6": ["s72", 16, 128], "query_rot_2": ["s72", 16, 128], "query_pass_2": ["s72", 16, 0], "unsqueeze_9": ["s72", 1, 64], "cos_7": ["s72", 1, 64], "unsqueeze_10": ["s72", 1, 64], "sin_7": ["s72", 1, 64], "x1_4": ["s72", 16, 64], "x2_4": ["s72", 16, 64], "mul_31": ["s72", 16, 64], "mul_32": ["s72", 16, 64], "o1_4": ["s72", 16, 64], "mul_33": ["s72", 16, 64], "mul_34": ["s72", 16, 64], "o2_4": ["s72", 16, 64], "output_13": ["s72", 16, 128], "cat_9": ["s72", 16, 128], "query_7": ["s72", 2048], "key_6": ["s72", 4, 128], "key_rot_2": ["s72", 4, 128], "key_pass_2": ["s72", 4, 0], "unsqueeze_11": ["s72", 1, 64], "cos_8": ["s72", 1, 64], "unsqueeze_12": ["s72", 1, 64], "sin_8": ["s72", 1, 64], "x1_5": ["s72", 4, 64], "x2_5": ["s72", 4, 64], "mul_35": ["s72", 4, 64], "mul_36": ["s72", 4, 64], "o1_5": ["s72", 4, 64], "mul_37": ["s72", 4, 64], "mul_38": ["s72", 4, 64], "o2_5": ["s72", 4, 64], "output_14": ["s72", 4, 128], "cat_11": ["s72", 4, 128], "key_7": ["s72", 512], "output_15": ["s72", 2048], "query_8": ["s72", 16, 128], "output_16": ["s72", 16, 128], "key_8": ["s72", 4, 128], "value_2": ["s72", 4, 128], "attn_output_2": ["s72", 2048], "output_parallel_10": ["s72", 4096], "output_17": ["s72", 4096], "_get_data_attr_5": [4096], "x_26": ["s72", 4096], "x_27": ["s72", 4096], "residual_4": ["s72", 4096], "pow_6": ["s72", 4096], "variance_5": ["s72", 1], "add_17": ["s72", 1], "rsqrt_5": ["s72", 1], "x_28": ["s72", 4096], "x_29": ["s72", 4096], "x_30": ["s72", 4096], "output_parallel_11": ["s72", 14336], "getitem_82": ["s72", 7168], "silu_2": ["s72", 7168], "getitem_83": ["s72", 7168], "x_31": ["s72", 7168], "output_parallel_12": ["s72", 4096], "output_18": ["s72", 4096], "_get_data_attr_6": [4096], "x_32": ["s72", 4096], "x_33": ["s72", 4096], "residual_5": ["s72", 4096], "pow_7": ["s72", 4096], "variance_6": ["s72", 1], "add_19": ["s72", 1], "rsqrt_6": ["s72", 1], "x_34": ["s72", 4096], "x_35": ["s72", 4096], "x_36": ["s72", 4096], "output_parallel_13": ["s72", 3072], "q_3": ["s72", 2048], "k_3": ["s72", 512], "v_3": ["s72", 512], "positions_3": ["s72"], "cos_sin_3": ["s72", 128], "cos_9": ["s72", 64], "sin_9": ["s72", 64], "query_9": ["s72", 16, 128], "query_rot_3": ["s72", 16, 128], "query_pass_3": ["s72", 16, 0], "unsqueeze_13": ["s72", 1, 64], "cos_10": ["s72", 1, 64], "unsqueeze_14": ["s72", 1, 64], "sin_10": ["s72", 1, 64], "x1_6": ["s72", 16, 64], "x2_6": ["s72", 16, 64], "mul_44": ["s72", 16, 64], "mul_45": ["s72", 16, 64], "o1_6": ["s72", 16, 64], "mul_46": ["s72", 16, 64], "mul_47": ["s72", 16, 64], "o2_6": ["s72", 16, 64], "output_19": ["s72", 16, 128], "cat_13": ["s72", 16, 128], "query_10": ["s72", 2048], "key_9": ["s72", 4, 128], "key_rot_3": ["s72", 4, 128], "key_pass_3": ["s72", 4, 0], "unsqueeze_15": ["s72", 1, 64], "cos_11": ["s72", 1, 64], "unsqueeze_16": ["s72", 1, 64], "sin_11": ["s72", 1, 64], "x1_7": ["s72", 4, 64], "x2_7": ["s72", 4, 64], "mul_48": ["s72", 4, 64], "mul_49": ["s72", 4, 64], "o1_7": ["s72", 4, 64], "mul_50": ["s72", 4, 64], "mul_51": ["s72", 4, 64], "o2_7": ["s72", 4, 64], "output_20": ["s72", 4, 128], "cat_15": ["s72", 4, 128], "key_10": ["s72", 512], "output_21": ["s72", 2048], "query_11": ["s72", 16, 128], "output_22": ["s72", 16, 128], "key_11": ["s72", 4, 128], "value_3": ["s72", 4, 128], "attn_output_3": ["s72", 2048], "output_parallel_14": ["s72", 4096], "output_23": ["s72", 4096], "_get_data_attr_7": [4096], "x_37": ["s72", 4096], "x_38": ["s72", 4096], "residual_6": ["s72", 4096], "pow_8": ["s72", 4096], "variance_7": ["s72", 1], "add_23": ["s72", 1], "rsqrt_7": ["s72", 1], "x_39": ["s72", 4096], "x_40": ["s72", 4096], "x_41": ["s72", 4096], "output_parallel_15": ["s72", 14336], "getitem_110": ["s72", 7168], "silu_3": ["s72", 7168], "getitem_111": ["s72", 7168], "x_42": ["s72", 7168], "output_parallel_16": ["s72", 4096], "output_24": ["s72", 4096], "_get_data_attr_8": [4096], "x_43": ["s72", 4096], "x_44": ["s72", 4096], "residual_7": ["s72", 4096], "pow_9": ["s72", 4096], "variance_8": ["s72", 1], "add_25": ["s72", 1], "rsqrt_8": ["s72", 1], "x_45": ["s72", 4096], "x_46": ["s72", 4096], "x_47": ["s72", 4096], "output_parallel_17": ["s72", 3072], "q_4": ["s72", 2048], "k_4": ["s72", 512], "v_4": ["s72", 512], "positions_4": ["s72"], "cos_sin_4": ["s72", 128], "cos_12": ["s72", 64], "sin_12": ["s72", 64], "query_12": ["s72", 16, 128], "query_rot_4": ["s72", 16, 128], "query_pass_4": ["s72", 16, 0], "unsqueeze_17": ["s72", 1, 64], "cos_13": ["s72", 1, 64], "unsqueeze_18": ["s72", 1, 64], "sin_13": ["s72", 1, 64], "x1_8": ["s72", 16, 64], "x2_8": ["s72", 16, 64], "mul_57": ["s72", 16, 64], "mul_58": ["s72", 16, 64], "o1_8": ["s72", 16, 64], "mul_59": ["s72", 16, 64], "mul_60": ["s72", 16, 64], "o2_8": ["s72", 16, 64], "output_25": ["s72", 16, 128], "cat_17": ["s72", 16, 128], "query_13": ["s72", 2048], "key_12": ["s72", 4, 128], "key_rot_4": ["s72", 4, 128], "key_pass_4": ["s72", 4, 0], "unsqueeze_19": ["s72", 1, 64], "cos_14": ["s72", 1, 64], "unsqueeze_20": ["s72", 1, 64], "sin_14": ["s72", 1, 64], "x1_9": ["s72", 4, 64], "x2_9": ["s72", 4, 64], "mul_61": ["s72", 4, 64], "mul_62": ["s72", 4, 64], "o1_9": ["s72", 4, 64], "mul_63": ["s72", 4, 64], "mul_64": ["s72", 4, 64], "o2_9": ["s72", 4, 64], "output_26": ["s72", 4, 128], "cat_19": ["s72", 4, 128], "key_13": ["s72", 512], "output_27": ["s72", 2048], "query_14": ["s72", 16, 128], "output_28": ["s72", 16, 128], "key_14": ["s72", 4, 128], "value_4": ["s72", 4, 128], "attn_output_4": ["s72", 2048], "output_parallel_18": ["s72", 4096], "output_29": ["s72", 4096], "_get_data_attr_9": [4096], "x_48": ["s72", 4096], "x_49": ["s72", 4096], "residual_8": ["s72", 4096], "pow_10": ["s72", 4096], "variance_9": ["s72", 1], "add_29": ["s72", 1], "rsqrt_9": ["s72", 1], "x_50": ["s72", 4096], "x_51": ["s72", 4096], "x_52": ["s72", 4096], "output_parallel_19": ["s72", 14336], "getitem_138": ["s72", 7168], "silu_4": ["s72", 7168], "getitem_139": ["s72", 7168], "x_53": ["s72", 7168], "output_parallel_20": ["s72", 4096], "output_30": ["s72", 4096], "_get_data_attr_10": [4096], "x_54": ["s72", 4096], "x_55": ["s72", 4096], "residual_9": ["s72", 4096], "pow_11": ["s72", 4096], "variance_10": ["s72", 1], "add_31": ["s72", 1], "rsqrt_10": ["s72", 1], "x_56": ["s72", 4096], "x_57": ["s72", 4096], "x_58": ["s72", 4096], "output_parallel_21": ["s72", 3072], "q_5": ["s72", 2048], "k_5": ["s72", 512], "v_5": ["s72", 512], "positions_5": ["s72"], "cos_sin_5": ["s72", 128], "cos_15": ["s72", 64], "sin_15": ["s72", 64], "query_15": ["s72", 16, 128], "query_rot_5": ["s72", 16, 128], "query_pass_5": ["s72", 16, 0], "unsqueeze_21": ["s72", 1, 64], "cos_16": ["s72", 1, 64], "unsqueeze_22": ["s72", 1, 64], "sin_16": ["s72", 1, 64], "x1_10": ["s72", 16, 64], "x2_10": ["s72", 16, 64], "mul_70": ["s72", 16, 64], "mul_71": ["s72", 16, 64], "o1_10": ["s72", 16, 64], "mul_72": ["s72", 16, 64], "mul_73": ["s72", 16, 64], "o2_10": ["s72", 16, 64], "output_31": ["s72", 16, 128], "cat_21": ["s72", 16, 128], "query_16": ["s72", 2048], "key_15": ["s72", 4, 128], "key_rot_5": ["s72", 4, 128], "key_pass_5": ["s72", 4, 0], "unsqueeze_23": ["s72", 1, 64], "cos_17": ["s72", 1, 64], "unsqueeze_24": ["s72", 1, 64], "sin_17": ["s72", 1, 64], "x1_11": ["s72", 4, 64], "x2_11": ["s72", 4, 64], "mul_74": ["s72", 4, 64], "mul_75": ["s72", 4, 64], "o1_11": ["s72", 4, 64], "mul_76": ["s72", 4, 64], "mul_77": ["s72", 4, 64], "o2_11": ["s72", 4, 64], "output_32": ["s72", 4, 128], "cat_23": ["s72", 4, 128], "key_16": ["s72", 512], "output_33": ["s72", 2048], "query_17": ["s72", 16, 128], "output_34": ["s72", 16, 128], "key_17": ["s72", 4, 128], "value_5": ["s72", 4, 128], "attn_output_5": ["s72", 2048], "output_parallel_22": ["s72", 4096], "output_35": ["s72", 4096], "_get_data_attr_11": [4096], "x_59": ["s72", 4096], "x_60": ["s72", 4096], "residual_10": ["s72", 4096], "pow_12": ["s72", 4096], "variance_11": ["s72", 1], "add_35": ["s72", 1], "rsqrt_11": ["s72", 1], "x_61": ["s72", 4096], "x_62": ["s72", 4096], "x_63": ["s72", 4096], "output_parallel_23": ["s72", 14336], "getitem_166": ["s72", 7168], "silu_5": ["s72", 7168], "getitem_167": ["s72", 7168], "x_64": ["s72", 7168], "output_parallel_24": ["s72", 4096], "output_36": ["s72", 4096], "_get_data_attr_12": [4096], "x_65": ["s72", 4096], "x_66": ["s72", 4096], "residual_11": ["s72", 4096], "pow_13": ["s72", 4096], "variance_12": ["s72", 1], "add_37": ["s72", 1], "rsqrt_12": ["s72", 1], "x_67": ["s72", 4096], "x_68": ["s72", 4096], "x_69": ["s72", 4096], "output_parallel_25": ["s72", 3072], "q_6": ["s72", 2048], "k_6": ["s72", 512], "v_6": ["s72", 512], "positions_6": ["s72"], "cos_sin_6": ["s72", 128], "cos_18": ["s72", 64], "sin_18": ["s72", 64], "query_18": ["s72", 16, 128], "query_rot_6": ["s72", 16, 128], "query_pass_6": ["s72", 16, 0], "unsqueeze_25": ["s72", 1, 64], "cos_19": ["s72", 1, 64], "unsqueeze_26": ["s72", 1, 64], "sin_19": ["s72", 1, 64], "x1_12": ["s72", 16, 64], "x2_12": ["s72", 16, 64], "mul_83": ["s72", 16, 64], "mul_84": ["s72", 16, 64], "o1_12": ["s72", 16, 64], "mul_85": ["s72", 16, 64], "mul_86": ["s72", 16, 64], "o2_12": ["s72", 16, 64], "output_37": ["s72", 16, 128], "cat_25": ["s72", 16, 128], "query_19": ["s72", 2048], "key_18": ["s72", 4, 128], "key_rot_6": ["s72", 4, 128], "key_pass_6": ["s72", 4, 0], "unsqueeze_27": ["s72", 1, 64], "cos_20": ["s72", 1, 64], "unsqueeze_28": ["s72", 1, 64], "sin_20": ["s72", 1, 64], "x1_13": ["s72", 4, 64], "x2_13": ["s72", 4, 64], "mul_87": ["s72", 4, 64], "mul_88": ["s72", 4, 64], "o1_13": ["s72", 4, 64], "mul_89": ["s72", 4, 64], "mul_90": ["s72", 4, 64], "o2_13": ["s72", 4, 64], "output_38": ["s72", 4, 128], "cat_27": ["s72", 4, 128], "key_19": ["s72", 512], "output_39": ["s72", 2048], "query_20": ["s72", 16, 128], "output_40": ["s72", 16, 128], "key_20": ["s72", 4, 128], "value_6": ["s72", 4, 128], "attn_output_6": ["s72", 2048], "output_parallel_26": ["s72", 4096], "output_41": ["s72", 4096], "_get_data_attr_13": [4096], "x_70": ["s72", 4096], "x_71": ["s72", 4096], "residual_12": ["s72", 4096], "pow_14": ["s72", 4096], "variance_13": ["s72", 1], "add_41": ["s72", 1], "rsqrt_13": ["s72", 1], "x_72": ["s72", 4096], "x_73": ["s72", 4096], "x_74": ["s72", 4096], "output_parallel_27": ["s72", 14336], "getitem_194": ["s72", 7168], "silu_6": ["s72", 7168], "getitem_195": ["s72", 7168], "x_75": ["s72", 7168], "output_parallel_28": ["s72", 4096], "output_42": ["s72", 4096], "_get_data_attr_14": [4096], "x_76": ["s72", 4096], "x_77": ["s72", 4096], "residual_13": ["s72", 4096], "pow_15": ["s72", 4096], "variance_14": ["s72", 1], "add_43": ["s72", 1], "rsqrt_14": ["s72", 1], "x_78": ["s72", 4096], "x_79": ["s72", 4096], "x_80": ["s72", 4096], "output_parallel_29": ["s72", 3072], "q_7": ["s72", 2048], "k_7": ["s72", 512], "v_7": ["s72", 512], "positions_7": ["s72"], "cos_sin_7": ["s72", 128], "cos_21": ["s72", 64], "sin_21": ["s72", 64], "query_21": ["s72", 16, 128], "query_rot_7": ["s72", 16, 128], "query_pass_7": ["s72", 16, 0], "unsqueeze_29": ["s72", 1, 64], "cos_22": ["s72", 1, 64], "unsqueeze_30": ["s72", 1, 64], "sin_22": ["s72", 1, 64], "x1_14": ["s72", 16, 64], "x2_14": ["s72", 16, 64], "mul_96": ["s72", 16, 64], "mul_97": ["s72", 16, 64], "o1_14": ["s72", 16, 64], "mul_98": ["s72", 16, 64], "mul_99": ["s72", 16, 64], "o2_14": ["s72", 16, 64], "output_43": ["s72", 16, 128], "cat_29": ["s72", 16, 128], "query_22": ["s72", 2048], "key_21": ["s72", 4, 128], "key_rot_7": ["s72", 4, 128], "key_pass_7": ["s72", 4, 0], "unsqueeze_31": ["s72", 1, 64], "cos_23": ["s72", 1, 64], "unsqueeze_32": ["s72", 1, 64], "sin_23": ["s72", 1, 64], "x1_15": ["s72", 4, 64], "x2_15": ["s72", 4, 64], "mul_100": ["s72", 4, 64], "mul_101": ["s72", 4, 64], "o1_15": ["s72", 4, 64], "mul_102": ["s72", 4, 64], "mul_103": ["s72", 4, 64], "o2_15": ["s72", 4, 64], "output_44": ["s72", 4, 128], "cat_31": ["s72", 4, 128], "key_22": ["s72", 512], "output_45": ["s72", 2048], "query_23": ["s72", 16, 128], "output_46": ["s72", 16, 128], "key_23": ["s72", 4, 128], "value_7": ["s72", 4, 128], "attn_output_7": ["s72", 2048], "output_parallel_30": ["s72", 4096], "output_47": ["s72", 4096], "_get_data_attr_15": [4096], "x_81": ["s72", 4096], "x_82": ["s72", 4096], "residual_14": ["s72", 4096], "pow_16": ["s72", 4096], "variance_15": ["s72", 1], "add_47": ["s72", 1], "rsqrt_15": ["s72", 1], "x_83": ["s72", 4096], "x_84": ["s72", 4096], "x_85": ["s72", 4096], "output_parallel_31": ["s72", 14336], "getitem_222": ["s72", 7168], "silu_7": ["s72", 7168], "getitem_223": ["s72", 7168], "x_86": ["s72", 7168], "output_parallel_32": ["s72", 4096], "output_48": ["s72", 4096], "_get_data_attr_16": [4096], "x_87": ["s72", 4096], "x_88": ["s72", 4096], "residual_15": ["s72", 4096], "pow_17": ["s72", 4096], "variance_16": ["s72", 1], "add_49": ["s72", 1], "rsqrt_16": ["s72", 1], "x_89": ["s72", 4096], "x_90": ["s72", 4096], "x_91": ["s72", 4096], "output_parallel_33": ["s72", 3072], "q_8": ["s72", 2048], "k_8": ["s72", 512], "v_8": ["s72", 512], "positions_8": ["s72"], "cos_sin_8": ["s72", 128], "cos_24": ["s72", 64], "sin_24": ["s72", 64], "query_24": ["s72", 16, 128], "query_rot_8": ["s72", 16, 128], "query_pass_8": ["s72", 16, 0], "unsqueeze_33": ["s72", 1, 64], "cos_25": ["s72", 1, 64], "unsqueeze_34": ["s72", 1, 64], "sin_25": ["s72", 1, 64], "x1_16": ["s72", 16, 64], "x2_16": ["s72", 16, 64], "mul_109": ["s72", 16, 64], "mul_110": ["s72", 16, 64], "o1_16": ["s72", 16, 64], "mul_111": ["s72", 16, 64], "mul_112": ["s72", 16, 64], "o2_16": ["s72", 16, 64], "output_49": ["s72", 16, 128], "cat_33": ["s72", 16, 128], "query_25": ["s72", 2048], "key_24": ["s72", 4, 128], "key_rot_8": ["s72", 4, 128], "key_pass_8": ["s72", 4, 0], "unsqueeze_35": ["s72", 1, 64], "cos_26": ["s72", 1, 64], "unsqueeze_36": ["s72", 1, 64], "sin_26": ["s72", 1, 64], "x1_17": ["s72", 4, 64], "x2_17": ["s72", 4, 64], "mul_113": ["s72", 4, 64], "mul_114": ["s72", 4, 64], "o1_17": ["s72", 4, 64], "mul_115": ["s72", 4, 64], "mul_116": ["s72", 4, 64], "o2_17": ["s72", 4, 64], "output_50": ["s72", 4, 128], "cat_35": ["s72", 4, 128], "key_25": ["s72", 512], "output_51": ["s72", 2048], "query_26": ["s72", 16, 128], "output_52": ["s72", 16, 128], "key_26": ["s72", 4, 128], "value_8": ["s72", 4, 128], "attn_output_8": ["s72", 2048], "output_parallel_34": ["s72", 4096], "output_53": ["s72", 4096], "_get_data_attr_17": [4096], "x_92": ["s72", 4096], "x_93": ["s72", 4096], "residual_16": ["s72", 4096], "pow_18": ["s72", 4096], "variance_17": ["s72", 1], "add_53": ["s72", 1], "rsqrt_17": ["s72", 1], "x_94": ["s72", 4096], "x_95": ["s72", 4096], "x_96": ["s72", 4096], "output_parallel_35": ["s72", 14336], "getitem_250": ["s72", 7168], "silu_8": ["s72", 7168], "getitem_251": ["s72", 7168], "x_97": ["s72", 7168], "output_parallel_36": ["s72", 4096], "output_54": ["s72", 4096], "_get_data_attr_18": [4096], "x_98": ["s72", 4096], "x_99": ["s72", 4096], "residual_17": ["s72", 4096], "pow_19": ["s72", 4096], "variance_18": ["s72", 1], "add_55": ["s72", 1], "rsqrt_18": ["s72", 1], "x_100": ["s72", 4096], "x_101": ["s72", 4096], "x_102": ["s72", 4096], "output_parallel_37": ["s72", 3072], "q_9": ["s72", 2048], "k_9": ["s72", 512], "v_9": ["s72", 512], "positions_9": ["s72"], "cos_sin_9": ["s72", 128], "cos_27": ["s72", 64], "sin_27": ["s72", 64], "query_27": ["s72", 16, 128], "query_rot_9": ["s72", 16, 128], "query_pass_9": ["s72", 16, 0], "unsqueeze_37": ["s72", 1, 64], "cos_28": ["s72", 1, 64], "unsqueeze_38": ["s72", 1, 64], "sin_28": ["s72", 1, 64], "x1_18": ["s72", 16, 64], "x2_18": ["s72", 16, 64], "mul_122": ["s72", 16, 64], "mul_123": ["s72", 16, 64], "o1_18": ["s72", 16, 64], "mul_124": ["s72", 16, 64], "mul_125": ["s72", 16, 64], "o2_18": ["s72", 16, 64], "output_55": ["s72", 16, 128], "cat_37": ["s72", 16, 128], "query_28": ["s72", 2048], "key_27": ["s72", 4, 128], "key_rot_9": ["s72", 4, 128], "key_pass_9": ["s72", 4, 0], "unsqueeze_39": ["s72", 1, 64], "cos_29": ["s72", 1, 64], "unsqueeze_40": ["s72", 1, 64], "sin_29": ["s72", 1, 64], "x1_19": ["s72", 4, 64], "x2_19": ["s72", 4, 64], "mul_126": ["s72", 4, 64], "mul_127": ["s72", 4, 64], "o1_19": ["s72", 4, 64], "mul_128": ["s72", 4, 64], "mul_129": ["s72", 4, 64], "o2_19": ["s72", 4, 64], "output_56": ["s72", 4, 128], "cat_39": ["s72", 4, 128], "key_28": ["s72", 512], "output_57": ["s72", 2048], "query_29": ["s72", 16, 128], "output_58": ["s72", 16, 128], "key_29": ["s72", 4, 128], "value_9": ["s72", 4, 128], "attn_output_9": ["s72", 2048], "output_parallel_38": ["s72", 4096], "output_59": ["s72", 4096], "_get_data_attr_19": [4096], "x_103": ["s72", 4096], "x_104": ["s72", 4096], "residual_18": ["s72", 4096], "pow_20": ["s72", 4096], "variance_19": ["s72", 1], "add_59": ["s72", 1], "rsqrt_19": ["s72", 1], "x_105": ["s72", 4096], "x_106": ["s72", 4096], "x_107": ["s72", 4096], "output_parallel_39": ["s72", 14336], "getitem_278": ["s72", 7168], "silu_9": ["s72", 7168], "getitem_279": ["s72", 7168], "x_108": ["s72", 7168], "output_parallel_40": ["s72", 4096], "output_60": ["s72", 4096], "_get_data_attr_20": [4096], "x_109": ["s72", 4096], "x_110": ["s72", 4096], "residual_19": ["s72", 4096], "pow_21": ["s72", 4096], "variance_20": ["s72", 1], "add_61": ["s72", 1], "rsqrt_20": ["s72", 1], "x_111": ["s72", 4096], "x_112": ["s72", 4096], "x_113": ["s72", 4096], "output_parallel_41": ["s72", 3072], "q_10": ["s72", 2048], "k_10": ["s72", 512], "v_10": ["s72", 512], "positions_10": ["s72"], "cos_sin_10": ["s72", 128], "cos_30": ["s72", 64], "sin_30": ["s72", 64], "query_30": ["s72", 16, 128], "query_rot_10": ["s72", 16, 128], "query_pass_10": ["s72", 16, 0], "unsqueeze_41": ["s72", 1, 64], "cos_31": ["s72", 1, 64], "unsqueeze_42": ["s72", 1, 64], "sin_31": ["s72", 1, 64], "x1_20": ["s72", 16, 64], "x2_20": ["s72", 16, 64], "mul_135": ["s72", 16, 64], "mul_136": ["s72", 16, 64], "o1_20": ["s72", 16, 64], "mul_137": ["s72", 16, 64], "mul_138": ["s72", 16, 64], "o2_20": ["s72", 16, 64], "output_61": ["s72", 16, 128], "cat_41": ["s72", 16, 128], "query_31": ["s72", 2048], "key_30": ["s72", 4, 128], "key_rot_10": ["s72", 4, 128], "key_pass_10": ["s72", 4, 0], "unsqueeze_43": ["s72", 1, 64], "cos_32": ["s72", 1, 64], "unsqueeze_44": ["s72", 1, 64], "sin_32": ["s72", 1, 64], "x1_21": ["s72", 4, 64], "x2_21": ["s72", 4, 64], "mul_139": ["s72", 4, 64], "mul_140": ["s72", 4, 64], "o1_21": ["s72", 4, 64], "mul_141": ["s72", 4, 64], "mul_142": ["s72", 4, 64], "o2_21": ["s72", 4, 64], "output_62": ["s72", 4, 128], "cat_43": ["s72", 4, 128], "key_31": ["s72", 512], "output_63": ["s72", 2048], "query_32": ["s72", 16, 128], "output_64": ["s72", 16, 128], "key_32": ["s72", 4, 128], "value_10": ["s72", 4, 128], "attn_output_10": ["s72", 2048], "output_parallel_42": ["s72", 4096], "output_65": ["s72", 4096], "_get_data_attr_21": [4096], "x_114": ["s72", 4096], "x_115": ["s72", 4096], "residual_20": ["s72", 4096], "pow_22": ["s72", 4096], "variance_21": ["s72", 1], "add_65": ["s72", 1], "rsqrt_21": ["s72", 1], "x_116": ["s72", 4096], "x_117": ["s72", 4096], "x_118": ["s72", 4096], "output_parallel_43": ["s72", 14336], "getitem_306": ["s72", 7168], "silu_10": ["s72", 7168], "getitem_307": ["s72", 7168], "x_119": ["s72", 7168], "output_parallel_44": ["s72", 4096], "output_66": ["s72", 4096], "_get_data_attr_22": [4096], "x_120": ["s72", 4096], "x_121": ["s72", 4096], "residual_21": ["s72", 4096], "pow_23": ["s72", 4096], "variance_22": ["s72", 1], "add_67": ["s72", 1], "rsqrt_22": ["s72", 1], "x_122": ["s72", 4096], "x_123": ["s72", 4096], "x_124": ["s72", 4096], "output_parallel_45": ["s72", 3072], "q_11": ["s72", 2048], "k_11": ["s72", 512], "v_11": ["s72", 512], "positions_11": ["s72"], "cos_sin_11": ["s72", 128], "cos_33": ["s72", 64], "sin_33": ["s72", 64], "query_33": ["s72", 16, 128], "query_rot_11": ["s72", 16, 128], "query_pass_11": ["s72", 16, 0], "unsqueeze_45": ["s72", 1, 64], "cos_34": ["s72", 1, 64], "unsqueeze_46": ["s72", 1, 64], "sin_34": ["s72", 1, 64], "x1_22": ["s72", 16, 64], "x2_22": ["s72", 16, 64], "mul_148": ["s72", 16, 64], "mul_149": ["s72", 16, 64], "o1_22": ["s72", 16, 64], "mul_150": ["s72", 16, 64], "mul_151": ["s72", 16, 64], "o2_22": ["s72", 16, 64], "output_67": ["s72", 16, 128], "cat_45": ["s72", 16, 128], "query_34": ["s72", 2048], "key_33": ["s72", 4, 128], "key_rot_11": ["s72", 4, 128], "key_pass_11": ["s72", 4, 0], "unsqueeze_47": ["s72", 1, 64], "cos_35": ["s72", 1, 64], "unsqueeze_48": ["s72", 1, 64], "sin_35": ["s72", 1, 64], "x1_23": ["s72", 4, 64], "x2_23": ["s72", 4, 64], "mul_152": ["s72", 4, 64], "mul_153": ["s72", 4, 64], "o1_23": ["s72", 4, 64], "mul_154": ["s72", 4, 64], "mul_155": ["s72", 4, 64], "o2_23": ["s72", 4, 64], "output_68": ["s72", 4, 128], "cat_47": ["s72", 4, 128], "key_34": ["s72", 512], "output_69": ["s72", 2048], "query_35": ["s72", 16, 128], "output_70": ["s72", 16, 128], "key_35": ["s72", 4, 128], "value_11": ["s72", 4, 128], "attn_output_11": ["s72", 2048], "output_parallel_46": ["s72", 4096], "output_71": ["s72", 4096], "_get_data_attr_23": [4096], "x_125": ["s72", 4096], "x_126": ["s72", 4096], "residual_22": ["s72", 4096], "pow_24": ["s72", 4096], "variance_23": ["s72", 1], "add_71": ["s72", 1], "rsqrt_23": ["s72", 1], "x_127": ["s72", 4096], "x_128": ["s72", 4096], "x_129": ["s72", 4096], "output_parallel_47": ["s72", 14336], "getitem_334": ["s72", 7168], "silu_11": ["s72", 7168], "getitem_335": ["s72", 7168], "x_130": ["s72", 7168], "output_parallel_48": ["s72", 4096], "output_72": ["s72", 4096], "_get_data_attr_24": [4096], "x_131": ["s72", 4096], "x_132": ["s72", 4096], "residual_23": ["s72", 4096], "pow_25": ["s72", 4096], "variance_24": ["s72", 1], "add_73": ["s72", 1], "rsqrt_24": ["s72", 1], "x_133": ["s72", 4096], "x_134": ["s72", 4096], "x_135": ["s72", 4096], "output_parallel_49": ["s72", 3072], "q_12": ["s72", 2048], "k_12": ["s72", 512], "v_12": ["s72", 512], "positions_12": ["s72"], "cos_sin_12": ["s72", 128], "cos_36": ["s72", 64], "sin_36": ["s72", 64], "query_36": ["s72", 16, 128], "query_rot_12": ["s72", 16, 128], "query_pass_12": ["s72", 16, 0], "unsqueeze_49": ["s72", 1, 64], "cos_37": ["s72", 1, 64], "unsqueeze_50": ["s72", 1, 64], "sin_37": ["s72", 1, 64], "x1_24": ["s72", 16, 64], "x2_24": ["s72", 16, 64], "mul_161": ["s72", 16, 64], "mul_162": ["s72", 16, 64], "o1_24": ["s72", 16, 64], "mul_163": ["s72", 16, 64], "mul_164": ["s72", 16, 64], "o2_24": ["s72", 16, 64], "output_73": ["s72", 16, 128], "cat_49": ["s72", 16, 128], "query_37": ["s72", 2048], "key_36": ["s72", 4, 128], "key_rot_12": ["s72", 4, 128], "key_pass_12": ["s72", 4, 0], "unsqueeze_51": ["s72", 1, 64], "cos_38": ["s72", 1, 64], "unsqueeze_52": ["s72", 1, 64], "sin_38": ["s72", 1, 64], "x1_25": ["s72", 4, 64], "x2_25": ["s72", 4, 64], "mul_165": ["s72", 4, 64], "mul_166": ["s72", 4, 64], "o1_25": ["s72", 4, 64], "mul_167": ["s72", 4, 64], "mul_168": ["s72", 4, 64], "o2_25": ["s72", 4, 64], "output_74": ["s72", 4, 128], "cat_51": ["s72", 4, 128], "key_37": ["s72", 512], "output_75": ["s72", 2048], "query_38": ["s72", 16, 128], "output_76": ["s72", 16, 128], "key_38": ["s72", 4, 128], "value_12": ["s72", 4, 128], "attn_output_12": ["s72", 2048], "output_parallel_50": ["s72", 4096], "output_77": ["s72", 4096], "_get_data_attr_25": [4096], "x_136": ["s72", 4096], "x_137": ["s72", 4096], "residual_24": ["s72", 4096], "pow_26": ["s72", 4096], "variance_25": ["s72", 1], "add_77": ["s72", 1], "rsqrt_25": ["s72", 1], "x_138": ["s72", 4096], "x_139": ["s72", 4096], "x_140": ["s72", 4096], "output_parallel_51": ["s72", 14336], "getitem_362": ["s72", 7168], "silu_12": ["s72", 7168], "getitem_363": ["s72", 7168], "x_141": ["s72", 7168], "output_parallel_52": ["s72", 4096], "output_78": ["s72", 4096], "_get_data_attr_26": [4096], "x_142": ["s72", 4096], "x_143": ["s72", 4096], "residual_25": ["s72", 4096], "pow_27": ["s72", 4096], "variance_26": ["s72", 1], "add_79": ["s72", 1], "rsqrt_26": ["s72", 1], "x_144": ["s72", 4096], "x_145": ["s72", 4096], "x_146": ["s72", 4096], "output_parallel_53": ["s72", 3072], "q_13": ["s72", 2048], "k_13": ["s72", 512], "v_13": ["s72", 512], "positions_13": ["s72"], "cos_sin_13": ["s72", 128], "cos_39": ["s72", 64], "sin_39": ["s72", 64], "query_39": ["s72", 16, 128], "query_rot_13": ["s72", 16, 128], "query_pass_13": ["s72", 16, 0], "unsqueeze_53": ["s72", 1, 64], "cos_40": ["s72", 1, 64], "unsqueeze_54": ["s72", 1, 64], "sin_40": ["s72", 1, 64], "x1_26": ["s72", 16, 64], "x2_26": ["s72", 16, 64], "mul_174": ["s72", 16, 64], "mul_175": ["s72", 16, 64], "o1_26": ["s72", 16, 64], "mul_176": ["s72", 16, 64], "mul_177": ["s72", 16, 64], "o2_26": ["s72", 16, 64], "output_79": ["s72", 16, 128], "cat_53": ["s72", 16, 128], "query_40": ["s72", 2048], "key_39": ["s72", 4, 128], "key_rot_13": ["s72", 4, 128], "key_pass_13": ["s72", 4, 0], "unsqueeze_55": ["s72", 1, 64], "cos_41": ["s72", 1, 64], "unsqueeze_56": ["s72", 1, 64], "sin_41": ["s72", 1, 64], "x1_27": ["s72", 4, 64], "x2_27": ["s72", 4, 64], "mul_178": ["s72", 4, 64], "mul_179": ["s72", 4, 64], "o1_27": ["s72", 4, 64], "mul_180": ["s72", 4, 64], "mul_181": ["s72", 4, 64], "o2_27": ["s72", 4, 64], "output_80": ["s72", 4, 128], "cat_55": ["s72", 4, 128], "key_40": ["s72", 512], "output_81": ["s72", 2048], "query_41": ["s72", 16, 128], "output_82": ["s72", 16, 128], "key_41": ["s72", 4, 128], "value_13": ["s72", 4, 128], "attn_output_13": ["s72", 2048], "output_parallel_54": ["s72", 4096], "output_83": ["s72", 4096], "_get_data_attr_27": [4096], "x_147": ["s72", 4096], "x_148": ["s72", 4096], "residual_26": ["s72", 4096], "pow_28": ["s72", 4096], "variance_27": ["s72", 1], "add_83": ["s72", 1], "rsqrt_27": ["s72", 1], "x_149": ["s72", 4096], "x_150": ["s72", 4096], "x_151": ["s72", 4096], "output_parallel_55": ["s72", 14336], "getitem_390": ["s72", 7168], "silu_13": ["s72", 7168], "getitem_391": ["s72", 7168], "x_152": ["s72", 7168], "output_parallel_56": ["s72", 4096], "output_84": ["s72", 4096], "_get_data_attr_28": [4096], "x_153": ["s72", 4096], "x_154": ["s72", 4096], "residual_27": ["s72", 4096], "pow_29": ["s72", 4096], "variance_28": ["s72", 1], "add_85": ["s72", 1], "rsqrt_28": ["s72", 1], "x_155": ["s72", 4096], "x_156": ["s72", 4096], "x_157": ["s72", 4096], "output_parallel_57": ["s72", 3072], "q_14": ["s72", 2048], "k_14": ["s72", 512], "v_14": ["s72", 512], "positions_14": ["s72"], "cos_sin_14": ["s72", 128], "cos_42": ["s72", 64], "sin_42": ["s72", 64], "query_42": ["s72", 16, 128], "query_rot_14": ["s72", 16, 128], "query_pass_14": ["s72", 16, 0], "unsqueeze_57": ["s72", 1, 64], "cos_43": ["s72", 1, 64], "unsqueeze_58": ["s72", 1, 64], "sin_43": ["s72", 1, 64], "x1_28": ["s72", 16, 64], "x2_28": ["s72", 16, 64], "mul_187": ["s72", 16, 64], "mul_188": ["s72", 16, 64], "o1_28": ["s72", 16, 64], "mul_189": ["s72", 16, 64], "mul_190": ["s72", 16, 64], "o2_28": ["s72", 16, 64], "output_85": ["s72", 16, 128], "cat_57": ["s72", 16, 128], "query_43": ["s72", 2048], "key_42": ["s72", 4, 128], "key_rot_14": ["s72", 4, 128], "key_pass_14": ["s72", 4, 0], "unsqueeze_59": ["s72", 1, 64], "cos_44": ["s72", 1, 64], "unsqueeze_60": ["s72", 1, 64], "sin_44": ["s72", 1, 64], "x1_29": ["s72", 4, 64], "x2_29": ["s72", 4, 64], "mul_191": ["s72", 4, 64], "mul_192": ["s72", 4, 64], "o1_29": ["s72", 4, 64], "mul_193": ["s72", 4, 64], "mul_194": ["s72", 4, 64], "o2_29": ["s72", 4, 64], "output_86": ["s72", 4, 128], "cat_59": ["s72", 4, 128], "key_43": ["s72", 512], "output_87": ["s72", 2048], "query_44": ["s72", 16, 128], "output_88": ["s72", 16, 128], "key_44": ["s72", 4, 128], "value_14": ["s72", 4, 128], "attn_output_14": ["s72", 2048], "output_parallel_58": ["s72", 4096], "output_89": ["s72", 4096], "_get_data_attr_29": [4096], "x_158": ["s72", 4096], "x_159": ["s72", 4096], "residual_28": ["s72", 4096], "pow_30": ["s72", 4096], "variance_29": ["s72", 1], "add_89": ["s72", 1], "rsqrt_29": ["s72", 1], "x_160": ["s72", 4096], "x_161": ["s72", 4096], "x_162": ["s72", 4096], "output_parallel_59": ["s72", 14336], "getitem_418": ["s72", 7168], "silu_14": ["s72", 7168], "getitem_419": ["s72", 7168], "x_163": ["s72", 7168], "output_parallel_60": ["s72", 4096], "output_90": ["s72", 4096], "_get_data_attr_30": [4096], "x_164": ["s72", 4096], "x_165": ["s72", 4096], "residual_29": ["s72", 4096], "pow_31": ["s72", 4096], "variance_30": ["s72", 1], "add_91": ["s72", 1], "rsqrt_30": ["s72", 1], "x_166": ["s72", 4096], "x_167": ["s72", 4096], "x_168": ["s72", 4096], "output_parallel_61": ["s72", 3072], "q_15": ["s72", 2048], "k_15": ["s72", 512], "v_15": ["s72", 512], "positions_15": ["s72"], "cos_sin_15": ["s72", 128], "cos_45": ["s72", 64], "sin_45": ["s72", 64], "query_45": ["s72", 16, 128], "query_rot_15": ["s72", 16, 128], "query_pass_15": ["s72", 16, 0], "unsqueeze_61": ["s72", 1, 64], "cos_46": ["s72", 1, 64], "unsqueeze_62": ["s72", 1, 64], "sin_46": ["s72", 1, 64], "x1_30": ["s72", 16, 64], "x2_30": ["s72", 16, 64], "mul_200": ["s72", 16, 64], "mul_201": ["s72", 16, 64], "o1_30": ["s72", 16, 64], "mul_202": ["s72", 16, 64], "mul_203": ["s72", 16, 64], "o2_30": ["s72", 16, 64], "output_91": ["s72", 16, 128], "cat_61": ["s72", 16, 128], "query_46": ["s72", 2048], "key_45": ["s72", 4, 128], "key_rot_15": ["s72", 4, 128], "key_pass_15": ["s72", 4, 0], "unsqueeze_63": ["s72", 1, 64], "cos_47": ["s72", 1, 64], "unsqueeze_64": ["s72", 1, 64], "sin_47": ["s72", 1, 64], "x1_31": ["s72", 4, 64], "x2_31": ["s72", 4, 64], "mul_204": ["s72", 4, 64], "mul_205": ["s72", 4, 64], "o1_31": ["s72", 4, 64], "mul_206": ["s72", 4, 64], "mul_207": ["s72", 4, 64], "o2_31": ["s72", 4, 64], "output_92": ["s72", 4, 128], "cat_63": ["s72", 4, 128], "key_46": ["s72", 512], "output_93": ["s72", 2048], "query_47": ["s72", 16, 128], "output_94": ["s72", 16, 128], "key_47": ["s72", 4, 128], "value_15": ["s72", 4, 128], "attn_output_15": ["s72", 2048], "output_parallel_62": ["s72", 4096], "output_95": ["s72", 4096], "_get_data_attr_31": [4096], "x_169": ["s72", 4096], "x_170": ["s72", 4096], "residual_30": ["s72", 4096], "pow_32": ["s72", 4096], "variance_31": ["s72", 1], "add_95": ["s72", 1], "rsqrt_31": ["s72", 1], "x_171": ["s72", 4096], "x_172": ["s72", 4096], "x_173": ["s72", 4096], "output_parallel_63": ["s72", 14336], "getitem_446": ["s72", 7168], "silu_15": ["s72", 7168], "getitem_447": ["s72", 7168], "x_174": ["s72", 7168], "output_parallel_64": ["s72", 4096], "output_96": ["s72", 4096], "_get_data_attr_32": [4096], "x_175": ["s72", 4096], "x_176": ["s72", 4096], "residual_31": ["s72", 4096], "pow_33": ["s72", 4096], "variance_32": ["s72", 1], "add_97": ["s72", 1], "rsqrt_32": ["s72", 1], "x_177": ["s72", 4096], "x_178": ["s72", 4096], "x_179": ["s72", 4096], "output_parallel_65": ["s72", 3072], "q_16": ["s72", 2048], "k_16": ["s72", 512], "v_16": ["s72", 512], "positions_16": ["s72"], "cos_sin_16": ["s72", 128], "cos_48": ["s72", 64], "sin_48": ["s72", 64], "query_48": ["s72", 16, 128], "query_rot_16": ["s72", 16, 128], "query_pass_16": ["s72", 16, 0], "unsqueeze_65": ["s72", 1, 64], "cos_49": ["s72", 1, 64], "unsqueeze_66": ["s72", 1, 64], "sin_49": ["s72", 1, 64], "x1_32": ["s72", 16, 64], "x2_32": ["s72", 16, 64], "mul_213": ["s72", 16, 64], "mul_214": ["s72", 16, 64], "o1_32": ["s72", 16, 64], "mul_215": ["s72", 16, 64], "mul_216": ["s72", 16, 64], "o2_32": ["s72", 16, 64], "output_97": ["s72", 16, 128], "cat_65": ["s72", 16, 128], "query_49": ["s72", 2048], "key_48": ["s72", 4, 128], "key_rot_16": ["s72", 4, 128], "key_pass_16": ["s72", 4, 0], "unsqueeze_67": ["s72", 1, 64], "cos_50": ["s72", 1, 64], "unsqueeze_68": ["s72", 1, 64], "sin_50": ["s72", 1, 64], "x1_33": ["s72", 4, 64], "x2_33": ["s72", 4, 64], "mul_217": ["s72", 4, 64], "mul_218": ["s72", 4, 64], "o1_33": ["s72", 4, 64], "mul_219": ["s72", 4, 64], "mul_220": ["s72", 4, 64], "o2_33": ["s72", 4, 64], "output_98": ["s72", 4, 128], "cat_67": ["s72", 4, 128], "key_49": ["s72", 512], "output_99": ["s72", 2048], "query_50": ["s72", 16, 128], "output_100": ["s72", 16, 128], "key_50": ["s72", 4, 128], "value_16": ["s72", 4, 128], "attn_output_16": ["s72", 2048], "output_parallel_66": ["s72", 4096], "output_101": ["s72", 4096], "_get_data_attr_33": [4096], "x_180": ["s72", 4096], "x_181": ["s72", 4096], "residual_32": ["s72", 4096], "pow_34": ["s72", 4096], "variance_33": ["s72", 1], "add_101": ["s72", 1], "rsqrt_33": ["s72", 1], "x_182": ["s72", 4096], "x_183": ["s72", 4096], "x_184": ["s72", 4096], "output_parallel_67": ["s72", 14336], "getitem_474": ["s72", 7168], "silu_16": ["s72", 7168], "getitem_475": ["s72", 7168], "x_185": ["s72", 7168], "output_parallel_68": ["s72", 4096], "output_102": ["s72", 4096], "_get_data_attr_34": [4096], "x_186": ["s72", 4096], "x_187": ["s72", 4096], "residual_33": ["s72", 4096], "pow_35": ["s72", 4096], "variance_34": ["s72", 1], "add_103": ["s72", 1], "rsqrt_34": ["s72", 1], "x_188": ["s72", 4096], "x_189": ["s72", 4096], "x_190": ["s72", 4096], "output_parallel_69": ["s72", 3072], "q_17": ["s72", 2048], "k_17": ["s72", 512], "v_17": ["s72", 512], "positions_17": ["s72"], "cos_sin_17": ["s72", 128], "cos_51": ["s72", 64], "sin_51": ["s72", 64], "query_51": ["s72", 16, 128], "query_rot_17": ["s72", 16, 128], "query_pass_17": ["s72", 16, 0], "unsqueeze_69": ["s72", 1, 64], "cos_52": ["s72", 1, 64], "unsqueeze_70": ["s72", 1, 64], "sin_52": ["s72", 1, 64], "x1_34": ["s72", 16, 64], "x2_34": ["s72", 16, 64], "mul_226": ["s72", 16, 64], "mul_227": ["s72", 16, 64], "o1_34": ["s72", 16, 64], "mul_228": ["s72", 16, 64], "mul_229": ["s72", 16, 64], "o2_34": ["s72", 16, 64], "output_103": ["s72", 16, 128], "cat_69": ["s72", 16, 128], "query_52": ["s72", 2048], "key_51": ["s72", 4, 128], "key_rot_17": ["s72", 4, 128], "key_pass_17": ["s72", 4, 0], "unsqueeze_71": ["s72", 1, 64], "cos_53": ["s72", 1, 64], "unsqueeze_72": ["s72", 1, 64], "sin_53": ["s72", 1, 64], "x1_35": ["s72", 4, 64], "x2_35": ["s72", 4, 64], "mul_230": ["s72", 4, 64], "mul_231": ["s72", 4, 64], "o1_35": ["s72", 4, 64], "mul_232": ["s72", 4, 64], "mul_233": ["s72", 4, 64], "o2_35": ["s72", 4, 64], "output_104": ["s72", 4, 128], "cat_71": ["s72", 4, 128], "key_52": ["s72", 512], "output_105": ["s72", 2048], "query_53": ["s72", 16, 128], "output_106": ["s72", 16, 128], "key_53": ["s72", 4, 128], "value_17": ["s72", 4, 128], "attn_output_17": ["s72", 2048], "output_parallel_70": ["s72", 4096], "output_107": ["s72", 4096], "_get_data_attr_35": [4096], "x_191": ["s72", 4096], "x_192": ["s72", 4096], "residual_34": ["s72", 4096], "pow_36": ["s72", 4096], "variance_35": ["s72", 1], "add_107": ["s72", 1], "rsqrt_35": ["s72", 1], "x_193": ["s72", 4096], "x_194": ["s72", 4096], "x_195": ["s72", 4096], "output_parallel_71": ["s72", 14336], "getitem_502": ["s72", 7168], "silu_17": ["s72", 7168], "getitem_503": ["s72", 7168], "x_196": ["s72", 7168], "output_parallel_72": ["s72", 4096], "output_108": ["s72", 4096], "_get_data_attr_36": [4096], "x_197": ["s72", 4096], "x_198": ["s72", 4096], "residual_35": ["s72", 4096], "pow_37": ["s72", 4096], "variance_36": ["s72", 1], "add_109": ["s72", 1], "rsqrt_36": ["s72", 1], "x_199": ["s72", 4096], "x_200": ["s72", 4096], "x_201": ["s72", 4096], "output_parallel_73": ["s72", 3072], "q_18": ["s72", 2048], "k_18": ["s72", 512], "v_18": ["s72", 512], "positions_18": ["s72"], "cos_sin_18": ["s72", 128], "cos_54": ["s72", 64], "sin_54": ["s72", 64], "query_54": ["s72", 16, 128], "query_rot_18": ["s72", 16, 128], "query_pass_18": ["s72", 16, 0], "unsqueeze_73": ["s72", 1, 64], "cos_55": ["s72", 1, 64], "unsqueeze_74": ["s72", 1, 64], "sin_55": ["s72", 1, 64], "x1_36": ["s72", 16, 64], "x2_36": ["s72", 16, 64], "mul_239": ["s72", 16, 64], "mul_240": ["s72", 16, 64], "o1_36": ["s72", 16, 64], "mul_241": ["s72", 16, 64], "mul_242": ["s72", 16, 64], "o2_36": ["s72", 16, 64], "output_109": ["s72", 16, 128], "cat_73": ["s72", 16, 128], "query_55": ["s72", 2048], "key_54": ["s72", 4, 128], "key_rot_18": ["s72", 4, 128], "key_pass_18": ["s72", 4, 0], "unsqueeze_75": ["s72", 1, 64], "cos_56": ["s72", 1, 64], "unsqueeze_76": ["s72", 1, 64], "sin_56": ["s72", 1, 64], "x1_37": ["s72", 4, 64], "x2_37": ["s72", 4, 64], "mul_243": ["s72", 4, 64], "mul_244": ["s72", 4, 64], "o1_37": ["s72", 4, 64], "mul_245": ["s72", 4, 64], "mul_246": ["s72", 4, 64], "o2_37": ["s72", 4, 64], "output_110": ["s72", 4, 128], "cat_75": ["s72", 4, 128], "key_55": ["s72", 512], "output_111": ["s72", 2048], "query_56": ["s72", 16, 128], "output_112": ["s72", 16, 128], "key_56": ["s72", 4, 128], "value_18": ["s72", 4, 128], "attn_output_18": ["s72", 2048], "output_parallel_74": ["s72", 4096], "output_113": ["s72", 4096], "_get_data_attr_37": [4096], "x_202": ["s72", 4096], "x_203": ["s72", 4096], "residual_36": ["s72", 4096], "pow_38": ["s72", 4096], "variance_37": ["s72", 1], "add_113": ["s72", 1], "rsqrt_37": ["s72", 1], "x_204": ["s72", 4096], "x_205": ["s72", 4096], "x_206": ["s72", 4096], "output_parallel_75": ["s72", 14336], "getitem_530": ["s72", 7168], "silu_18": ["s72", 7168], "getitem_531": ["s72", 7168], "x_207": ["s72", 7168], "output_parallel_76": ["s72", 4096], "output_114": ["s72", 4096], "_get_data_attr_38": [4096], "x_208": ["s72", 4096], "x_209": ["s72", 4096], "residual_37": ["s72", 4096], "pow_39": ["s72", 4096], "variance_38": ["s72", 1], "add_115": ["s72", 1], "rsqrt_38": ["s72", 1], "x_210": ["s72", 4096], "x_211": ["s72", 4096], "x_212": ["s72", 4096], "output_parallel_77": ["s72", 3072], "q_19": ["s72", 2048], "k_19": ["s72", 512], "v_19": ["s72", 512], "positions_19": ["s72"], "cos_sin_19": ["s72", 128], "cos_57": ["s72", 64], "sin_57": ["s72", 64], "query_57": ["s72", 16, 128], "query_rot_19": ["s72", 16, 128], "query_pass_19": ["s72", 16, 0], "unsqueeze_77": ["s72", 1, 64], "cos_58": ["s72", 1, 64], "unsqueeze_78": ["s72", 1, 64], "sin_58": ["s72", 1, 64], "x1_38": ["s72", 16, 64], "x2_38": ["s72", 16, 64], "mul_252": ["s72", 16, 64], "mul_253": ["s72", 16, 64], "o1_38": ["s72", 16, 64], "mul_254": ["s72", 16, 64], "mul_255": ["s72", 16, 64], "o2_38": ["s72", 16, 64], "output_115": ["s72", 16, 128], "cat_77": ["s72", 16, 128], "query_58": ["s72", 2048], "key_57": ["s72", 4, 128], "key_rot_19": ["s72", 4, 128], "key_pass_19": ["s72", 4, 0], "unsqueeze_79": ["s72", 1, 64], "cos_59": ["s72", 1, 64], "unsqueeze_80": ["s72", 1, 64], "sin_59": ["s72", 1, 64], "x1_39": ["s72", 4, 64], "x2_39": ["s72", 4, 64], "mul_256": ["s72", 4, 64], "mul_257": ["s72", 4, 64], "o1_39": ["s72", 4, 64], "mul_258": ["s72", 4, 64], "mul_259": ["s72", 4, 64], "o2_39": ["s72", 4, 64], "output_116": ["s72", 4, 128], "cat_79": ["s72", 4, 128], "key_58": ["s72", 512], "output_117": ["s72", 2048], "query_59": ["s72", 16, 128], "output_118": ["s72", 16, 128], "key_59": ["s72", 4, 128], "value_19": ["s72", 4, 128], "attn_output_19": ["s72", 2048], "output_parallel_78": ["s72", 4096], "output_119": ["s72", 4096], "_get_data_attr_39": [4096], "x_213": ["s72", 4096], "x_214": ["s72", 4096], "residual_38": ["s72", 4096], "pow_40": ["s72", 4096], "variance_39": ["s72", 1], "add_119": ["s72", 1], "rsqrt_39": ["s72", 1], "x_215": ["s72", 4096], "x_216": ["s72", 4096], "x_217": ["s72", 4096], "output_parallel_79": ["s72", 14336], "getitem_558": ["s72", 7168], "silu_19": ["s72", 7168], "getitem_559": ["s72", 7168], "x_218": ["s72", 7168], "output_parallel_80": ["s72", 4096], "output_120": ["s72", 4096], "_get_data_attr_40": [4096], "x_219": ["s72", 4096], "x_220": ["s72", 4096], "residual_39": ["s72", 4096], "pow_41": ["s72", 4096], "variance_40": ["s72", 1], "add_121": ["s72", 1], "rsqrt_40": ["s72", 1], "x_221": ["s72", 4096], "x_222": ["s72", 4096], "x_223": ["s72", 4096], "output_parallel_81": ["s72", 3072], "q_20": ["s72", 2048], "k_20": ["s72", 512], "v_20": ["s72", 512], "positions_20": ["s72"], "cos_sin_20": ["s72", 128], "cos_60": ["s72", 64], "sin_60": ["s72", 64], "query_60": ["s72", 16, 128], "query_rot_20": ["s72", 16, 128], "query_pass_20": ["s72", 16, 0], "unsqueeze_81": ["s72", 1, 64], "cos_61": ["s72", 1, 64], "unsqueeze_82": ["s72", 1, 64], "sin_61": ["s72", 1, 64], "x1_40": ["s72", 16, 64], "x2_40": ["s72", 16, 64], "mul_265": ["s72", 16, 64], "mul_266": ["s72", 16, 64], "o1_40": ["s72", 16, 64], "mul_267": ["s72", 16, 64], "mul_268": ["s72", 16, 64], "o2_40": ["s72", 16, 64], "output_121": ["s72", 16, 128], "cat_81": ["s72", 16, 128], "query_61": ["s72", 2048], "key_60": ["s72", 4, 128], "key_rot_20": ["s72", 4, 128], "key_pass_20": ["s72", 4, 0], "unsqueeze_83": ["s72", 1, 64], "cos_62": ["s72", 1, 64], "unsqueeze_84": ["s72", 1, 64], "sin_62": ["s72", 1, 64], "x1_41": ["s72", 4, 64], "x2_41": ["s72", 4, 64], "mul_269": ["s72", 4, 64], "mul_270": ["s72", 4, 64], "o1_41": ["s72", 4, 64], "mul_271": ["s72", 4, 64], "mul_272": ["s72", 4, 64], "o2_41": ["s72", 4, 64], "output_122": ["s72", 4, 128], "cat_83": ["s72", 4, 128], "key_61": ["s72", 512], "output_123": ["s72", 2048], "query_62": ["s72", 16, 128], "output_124": ["s72", 16, 128], "key_62": ["s72", 4, 128], "value_20": ["s72", 4, 128], "attn_output_20": ["s72", 2048], "output_parallel_82": ["s72", 4096], "output_125": ["s72", 4096], "_get_data_attr_41": [4096], "x_224": ["s72", 4096], "x_225": ["s72", 4096], "residual_40": ["s72", 4096], "pow_42": ["s72", 4096], "variance_41": ["s72", 1], "add_125": ["s72", 1], "rsqrt_41": ["s72", 1], "x_226": ["s72", 4096], "x_227": ["s72", 4096], "x_228": ["s72", 4096], "output_parallel_83": ["s72", 14336], "getitem_586": ["s72", 7168], "silu_20": ["s72", 7168], "getitem_587": ["s72", 7168], "x_229": ["s72", 7168], "output_parallel_84": ["s72", 4096], "output_126": ["s72", 4096], "_get_data_attr_42": [4096], "x_230": ["s72", 4096], "x_231": ["s72", 4096], "residual_41": ["s72", 4096], "pow_43": ["s72", 4096], "variance_42": ["s72", 1], "add_127": ["s72", 1], "rsqrt_42": ["s72", 1], "x_232": ["s72", 4096], "x_233": ["s72", 4096], "x_234": ["s72", 4096], "output_parallel_85": ["s72", 3072], "q_21": ["s72", 2048], "k_21": ["s72", 512], "v_21": ["s72", 512], "positions_21": ["s72"], "cos_sin_21": ["s72", 128], "cos_63": ["s72", 64], "sin_63": ["s72", 64], "query_63": ["s72", 16, 128], "query_rot_21": ["s72", 16, 128], "query_pass_21": ["s72", 16, 0], "unsqueeze_85": ["s72", 1, 64], "cos_64": ["s72", 1, 64], "unsqueeze_86": ["s72", 1, 64], "sin_64": ["s72", 1, 64], "x1_42": ["s72", 16, 64], "x2_42": ["s72", 16, 64], "mul_278": ["s72", 16, 64], "mul_279": ["s72", 16, 64], "o1_42": ["s72", 16, 64], "mul_280": ["s72", 16, 64], "mul_281": ["s72", 16, 64], "o2_42": ["s72", 16, 64], "output_127": ["s72", 16, 128], "cat_85": ["s72", 16, 128], "query_64": ["s72", 2048], "key_63": ["s72", 4, 128], "key_rot_21": ["s72", 4, 128], "key_pass_21": ["s72", 4, 0], "unsqueeze_87": ["s72", 1, 64], "cos_65": ["s72", 1, 64], "unsqueeze_88": ["s72", 1, 64], "sin_65": ["s72", 1, 64], "x1_43": ["s72", 4, 64], "x2_43": ["s72", 4, 64], "mul_282": ["s72", 4, 64], "mul_283": ["s72", 4, 64], "o1_43": ["s72", 4, 64], "mul_284": ["s72", 4, 64], "mul_285": ["s72", 4, 64], "o2_43": ["s72", 4, 64], "output_128": ["s72", 4, 128], "cat_87": ["s72", 4, 128], "key_64": ["s72", 512], "output_129": ["s72", 2048], "query_65": ["s72", 16, 128], "output_130": ["s72", 16, 128], "key_65": ["s72", 4, 128], "value_21": ["s72", 4, 128], "attn_output_21": ["s72", 2048], "output_parallel_86": ["s72", 4096], "output_131": ["s72", 4096], "_get_data_attr_43": [4096], "x_235": ["s72", 4096], "x_236": ["s72", 4096], "residual_42": ["s72", 4096], "pow_44": ["s72", 4096], "variance_43": ["s72", 1], "add_131": ["s72", 1], "rsqrt_43": ["s72", 1], "x_237": ["s72", 4096], "x_238": ["s72", 4096], "x_239": ["s72", 4096], "output_parallel_87": ["s72", 14336], "getitem_614": ["s72", 7168], "silu_21": ["s72", 7168], "getitem_615": ["s72", 7168], "x_240": ["s72", 7168], "output_parallel_88": ["s72", 4096], "output_132": ["s72", 4096], "_get_data_attr_44": [4096], "x_241": ["s72", 4096], "x_242": ["s72", 4096], "residual_43": ["s72", 4096], "pow_45": ["s72", 4096], "variance_44": ["s72", 1], "add_133": ["s72", 1], "rsqrt_44": ["s72", 1], "x_243": ["s72", 4096], "x_244": ["s72", 4096], "x_245": ["s72", 4096], "output_parallel_89": ["s72", 3072], "q_22": ["s72", 2048], "k_22": ["s72", 512], "v_22": ["s72", 512], "positions_22": ["s72"], "cos_sin_22": ["s72", 128], "cos_66": ["s72", 64], "sin_66": ["s72", 64], "query_66": ["s72", 16, 128], "query_rot_22": ["s72", 16, 128], "query_pass_22": ["s72", 16, 0], "unsqueeze_89": ["s72", 1, 64], "cos_67": ["s72", 1, 64], "unsqueeze_90": ["s72", 1, 64], "sin_67": ["s72", 1, 64], "x1_44": ["s72", 16, 64], "x2_44": ["s72", 16, 64], "mul_291": ["s72", 16, 64], "mul_292": ["s72", 16, 64], "o1_44": ["s72", 16, 64], "mul_293": ["s72", 16, 64], "mul_294": ["s72", 16, 64], "o2_44": ["s72", 16, 64], "output_133": ["s72", 16, 128], "cat_89": ["s72", 16, 128], "query_67": ["s72", 2048], "key_66": ["s72", 4, 128], "key_rot_22": ["s72", 4, 128], "key_pass_22": ["s72", 4, 0], "unsqueeze_91": ["s72", 1, 64], "cos_68": ["s72", 1, 64], "unsqueeze_92": ["s72", 1, 64], "sin_68": ["s72", 1, 64], "x1_45": ["s72", 4, 64], "x2_45": ["s72", 4, 64], "mul_295": ["s72", 4, 64], "mul_296": ["s72", 4, 64], "o1_45": ["s72", 4, 64], "mul_297": ["s72", 4, 64], "mul_298": ["s72", 4, 64], "o2_45": ["s72", 4, 64], "output_134": ["s72", 4, 128], "cat_91": ["s72", 4, 128], "key_67": ["s72", 512], "output_135": ["s72", 2048], "query_68": ["s72", 16, 128], "output_136": ["s72", 16, 128], "key_68": ["s72", 4, 128], "value_22": ["s72", 4, 128], "attn_output_22": ["s72", 2048], "output_parallel_90": ["s72", 4096], "output_137": ["s72", 4096], "_get_data_attr_45": [4096], "x_246": ["s72", 4096], "x_247": ["s72", 4096], "residual_44": ["s72", 4096], "pow_46": ["s72", 4096], "variance_45": ["s72", 1], "add_137": ["s72", 1], "rsqrt_45": ["s72", 1], "x_248": ["s72", 4096], "x_249": ["s72", 4096], "x_250": ["s72", 4096], "output_parallel_91": ["s72", 14336], "getitem_642": ["s72", 7168], "silu_22": ["s72", 7168], "getitem_643": ["s72", 7168], "x_251": ["s72", 7168], "output_parallel_92": ["s72", 4096], "output_138": ["s72", 4096], "_get_data_attr_46": [4096], "x_252": ["s72", 4096], "x_253": ["s72", 4096], "residual_45": ["s72", 4096], "pow_47": ["s72", 4096], "variance_46": ["s72", 1], "add_139": ["s72", 1], "rsqrt_46": ["s72", 1], "x_254": ["s72", 4096], "x_255": ["s72", 4096], "x_256": ["s72", 4096], "output_parallel_93": ["s72", 3072], "q_23": ["s72", 2048], "k_23": ["s72", 512], "v_23": ["s72", 512], "positions_23": ["s72"], "cos_sin_23": ["s72", 128], "cos_69": ["s72", 64], "sin_69": ["s72", 64], "query_69": ["s72", 16, 128], "query_rot_23": ["s72", 16, 128], "query_pass_23": ["s72", 16, 0], "unsqueeze_93": ["s72", 1, 64], "cos_70": ["s72", 1, 64], "unsqueeze_94": ["s72", 1, 64], "sin_70": ["s72", 1, 64], "x1_46": ["s72", 16, 64], "x2_46": ["s72", 16, 64], "mul_304": ["s72", 16, 64], "mul_305": ["s72", 16, 64], "o1_46": ["s72", 16, 64], "mul_306": ["s72", 16, 64], "mul_307": ["s72", 16, 64], "o2_46": ["s72", 16, 64], "output_139": ["s72", 16, 128], "cat_93": ["s72", 16, 128], "query_70": ["s72", 2048], "key_69": ["s72", 4, 128], "key_rot_23": ["s72", 4, 128], "key_pass_23": ["s72", 4, 0], "unsqueeze_95": ["s72", 1, 64], "cos_71": ["s72", 1, 64], "unsqueeze_96": ["s72", 1, 64], "sin_71": ["s72", 1, 64], "x1_47": ["s72", 4, 64], "x2_47": ["s72", 4, 64], "mul_308": ["s72", 4, 64], "mul_309": ["s72", 4, 64], "o1_47": ["s72", 4, 64], "mul_310": ["s72", 4, 64], "mul_311": ["s72", 4, 64], "o2_47": ["s72", 4, 64], "output_140": ["s72", 4, 128], "cat_95": ["s72", 4, 128], "key_70": ["s72", 512], "output_141": ["s72", 2048], "query_71": ["s72", 16, 128], "output_142": ["s72", 16, 128], "key_71": ["s72", 4, 128], "value_23": ["s72", 4, 128], "attn_output_23": ["s72", 2048], "output_parallel_94": ["s72", 4096], "output_143": ["s72", 4096], "_get_data_attr_47": [4096], "x_257": ["s72", 4096], "x_258": ["s72", 4096], "residual_46": ["s72", 4096], "pow_48": ["s72", 4096], "variance_47": ["s72", 1], "add_143": ["s72", 1], "rsqrt_47": ["s72", 1], "x_259": ["s72", 4096], "x_260": ["s72", 4096], "x_261": ["s72", 4096], "output_parallel_95": ["s72", 14336], "getitem_670": ["s72", 7168], "silu_23": ["s72", 7168], "getitem_671": ["s72", 7168], "x_262": ["s72", 7168], "output_parallel_96": ["s72", 4096], "output_144": ["s72", 4096], "_get_data_attr_48": [4096], "x_263": ["s72", 4096], "x_264": ["s72", 4096], "residual_47": ["s72", 4096], "pow_49": ["s72", 4096], "variance_48": ["s72", 1], "add_145": ["s72", 1], "rsqrt_48": ["s72", 1], "x_265": ["s72", 4096], "x_266": ["s72", 4096], "x_267": ["s72", 4096], "output_parallel_97": ["s72", 3072], "q_24": ["s72", 2048], "k_24": ["s72", 512], "v_24": ["s72", 512], "positions_24": ["s72"], "cos_sin_24": ["s72", 128], "cos_72": ["s72", 64], "sin_72": ["s72", 64], "query_72": ["s72", 16, 128], "query_rot_24": ["s72", 16, 128], "query_pass_24": ["s72", 16, 0], "unsqueeze_97": ["s72", 1, 64], "cos_73": ["s72", 1, 64], "unsqueeze_98": ["s72", 1, 64], "sin_73": ["s72", 1, 64], "x1_48": ["s72", 16, 64], "x2_48": ["s72", 16, 64], "mul_317": ["s72", 16, 64], "mul_318": ["s72", 16, 64], "o1_48": ["s72", 16, 64], "mul_319": ["s72", 16, 64], "mul_320": ["s72", 16, 64], "o2_48": ["s72", 16, 64], "output_145": ["s72", 16, 128], "cat_97": ["s72", 16, 128], "query_73": ["s72", 2048], "key_72": ["s72", 4, 128], "key_rot_24": ["s72", 4, 128], "key_pass_24": ["s72", 4, 0], "unsqueeze_99": ["s72", 1, 64], "cos_74": ["s72", 1, 64], "unsqueeze_100": ["s72", 1, 64], "sin_74": ["s72", 1, 64], "x1_49": ["s72", 4, 64], "x2_49": ["s72", 4, 64], "mul_321": ["s72", 4, 64], "mul_322": ["s72", 4, 64], "o1_49": ["s72", 4, 64], "mul_323": ["s72", 4, 64], "mul_324": ["s72", 4, 64], "o2_49": ["s72", 4, 64], "output_146": ["s72", 4, 128], "cat_99": ["s72", 4, 128], "key_73": ["s72", 512], "output_147": ["s72", 2048], "query_74": ["s72", 16, 128], "output_148": ["s72", 16, 128], "key_74": ["s72", 4, 128], "value_24": ["s72", 4, 128], "attn_output_24": ["s72", 2048], "output_parallel_98": ["s72", 4096], "output_149": ["s72", 4096], "_get_data_attr_49": [4096], "x_268": ["s72", 4096], "x_269": ["s72", 4096], "residual_48": ["s72", 4096], "pow_50": ["s72", 4096], "variance_49": ["s72", 1], "add_149": ["s72", 1], "rsqrt_49": ["s72", 1], "x_270": ["s72", 4096], "x_271": ["s72", 4096], "x_272": ["s72", 4096], "output_parallel_99": ["s72", 14336], "getitem_698": ["s72", 7168], "silu_24": ["s72", 7168], "getitem_699": ["s72", 7168], "x_273": ["s72", 7168], "output_parallel_100": ["s72", 4096], "output_150": ["s72", 4096], "_get_data_attr_50": [4096], "x_274": ["s72", 4096], "x_275": ["s72", 4096], "residual_49": ["s72", 4096], "pow_51": ["s72", 4096], "variance_50": ["s72", 1], "add_151": ["s72", 1], "rsqrt_50": ["s72", 1], "x_276": ["s72", 4096], "x_277": ["s72", 4096], "x_278": ["s72", 4096], "output_parallel_101": ["s72", 3072], "q_25": ["s72", 2048], "k_25": ["s72", 512], "v_25": ["s72", 512], "positions_25": ["s72"], "cos_sin_25": ["s72", 128], "cos_75": ["s72", 64], "sin_75": ["s72", 64], "query_75": ["s72", 16, 128], "query_rot_25": ["s72", 16, 128], "query_pass_25": ["s72", 16, 0], "unsqueeze_101": ["s72", 1, 64], "cos_76": ["s72", 1, 64], "unsqueeze_102": ["s72", 1, 64], "sin_76": ["s72", 1, 64], "x1_50": ["s72", 16, 64], "x2_50": ["s72", 16, 64], "mul_330": ["s72", 16, 64], "mul_331": ["s72", 16, 64], "o1_50": ["s72", 16, 64], "mul_332": ["s72", 16, 64], "mul_333": ["s72", 16, 64], "o2_50": ["s72", 16, 64], "output_151": ["s72", 16, 128], "cat_101": ["s72", 16, 128], "query_76": ["s72", 2048], "key_75": ["s72", 4, 128], "key_rot_25": ["s72", 4, 128], "key_pass_25": ["s72", 4, 0], "unsqueeze_103": ["s72", 1, 64], "cos_77": ["s72", 1, 64], "unsqueeze_104": ["s72", 1, 64], "sin_77": ["s72", 1, 64], "x1_51": ["s72", 4, 64], "x2_51": ["s72", 4, 64], "mul_334": ["s72", 4, 64], "mul_335": ["s72", 4, 64], "o1_51": ["s72", 4, 64], "mul_336": ["s72", 4, 64], "mul_337": ["s72", 4, 64], "o2_51": ["s72", 4, 64], "output_152": ["s72", 4, 128], "cat_103": ["s72", 4, 128], "key_76": ["s72", 512], "output_153": ["s72", 2048], "query_77": ["s72", 16, 128], "output_154": ["s72", 16, 128], "key_77": ["s72", 4, 128], "value_25": ["s72", 4, 128], "attn_output_25": ["s72", 2048], "output_parallel_102": ["s72", 4096], "output_155": ["s72", 4096], "_get_data_attr_51": [4096], "x_279": ["s72", 4096], "x_280": ["s72", 4096], "residual_50": ["s72", 4096], "pow_52": ["s72", 4096], "variance_51": ["s72", 1], "add_155": ["s72", 1], "rsqrt_51": ["s72", 1], "x_281": ["s72", 4096], "x_282": ["s72", 4096], "x_283": ["s72", 4096], "output_parallel_103": ["s72", 14336], "getitem_726": ["s72", 7168], "silu_25": ["s72", 7168], "getitem_727": ["s72", 7168], "x_284": ["s72", 7168], "output_parallel_104": ["s72", 4096], "output_156": ["s72", 4096], "_get_data_attr_52": [4096], "x_285": ["s72", 4096], "x_286": ["s72", 4096], "residual_51": ["s72", 4096], "pow_53": ["s72", 4096], "variance_52": ["s72", 1], "add_157": ["s72", 1], "rsqrt_52": ["s72", 1], "x_287": ["s72", 4096], "x_288": ["s72", 4096], "x_289": ["s72", 4096], "output_parallel_105": ["s72", 3072], "q_26": ["s72", 2048], "k_26": ["s72", 512], "v_26": ["s72", 512], "positions_26": ["s72"], "cos_sin_26": ["s72", 128], "cos_78": ["s72", 64], "sin_78": ["s72", 64], "query_78": ["s72", 16, 128], "query_rot_26": ["s72", 16, 128], "query_pass_26": ["s72", 16, 0], "unsqueeze_105": ["s72", 1, 64], "cos_79": ["s72", 1, 64], "unsqueeze_106": ["s72", 1, 64], "sin_79": ["s72", 1, 64], "x1_52": ["s72", 16, 64], "x2_52": ["s72", 16, 64], "mul_343": ["s72", 16, 64], "mul_344": ["s72", 16, 64], "o1_52": ["s72", 16, 64], "mul_345": ["s72", 16, 64], "mul_346": ["s72", 16, 64], "o2_52": ["s72", 16, 64], "output_157": ["s72", 16, 128], "cat_105": ["s72", 16, 128], "query_79": ["s72", 2048], "key_78": ["s72", 4, 128], "key_rot_26": ["s72", 4, 128], "key_pass_26": ["s72", 4, 0], "unsqueeze_107": ["s72", 1, 64], "cos_80": ["s72", 1, 64], "unsqueeze_108": ["s72", 1, 64], "sin_80": ["s72", 1, 64], "x1_53": ["s72", 4, 64], "x2_53": ["s72", 4, 64], "mul_347": ["s72", 4, 64], "mul_348": ["s72", 4, 64], "o1_53": ["s72", 4, 64], "mul_349": ["s72", 4, 64], "mul_350": ["s72", 4, 64], "o2_53": ["s72", 4, 64], "output_158": ["s72", 4, 128], "cat_107": ["s72", 4, 128], "key_79": ["s72", 512], "output_159": ["s72", 2048], "query_80": ["s72", 16, 128], "output_160": ["s72", 16, 128], "key_80": ["s72", 4, 128], "value_26": ["s72", 4, 128], "attn_output_26": ["s72", 2048], "output_parallel_106": ["s72", 4096], "output_161": ["s72", 4096], "_get_data_attr_53": [4096], "x_290": ["s72", 4096], "x_291": ["s72", 4096], "residual_52": ["s72", 4096], "pow_54": ["s72", 4096], "variance_53": ["s72", 1], "add_161": ["s72", 1], "rsqrt_53": ["s72", 1], "x_292": ["s72", 4096], "x_293": ["s72", 4096], "x_294": ["s72", 4096], "output_parallel_107": ["s72", 14336], "getitem_754": ["s72", 7168], "silu_26": ["s72", 7168], "getitem_755": ["s72", 7168], "x_295": ["s72", 7168], "output_parallel_108": ["s72", 4096], "output_162": ["s72", 4096], "_get_data_attr_54": [4096], "x_296": ["s72", 4096], "x_297": ["s72", 4096], "residual_53": ["s72", 4096], "pow_55": ["s72", 4096], "variance_54": ["s72", 1], "add_163": ["s72", 1], "rsqrt_54": ["s72", 1], "x_298": ["s72", 4096], "x_299": ["s72", 4096], "x_300": ["s72", 4096], "output_parallel_109": ["s72", 3072], "q_27": ["s72", 2048], "k_27": ["s72", 512], "v_27": ["s72", 512], "positions_27": ["s72"], "cos_sin_27": ["s72", 128], "cos_81": ["s72", 64], "sin_81": ["s72", 64], "query_81": ["s72", 16, 128], "query_rot_27": ["s72", 16, 128], "query_pass_27": ["s72", 16, 0], "unsqueeze_109": ["s72", 1, 64], "cos_82": ["s72", 1, 64], "unsqueeze_110": ["s72", 1, 64], "sin_82": ["s72", 1, 64], "x1_54": ["s72", 16, 64], "x2_54": ["s72", 16, 64], "mul_356": ["s72", 16, 64], "mul_357": ["s72", 16, 64], "o1_54": ["s72", 16, 64], "mul_358": ["s72", 16, 64], "mul_359": ["s72", 16, 64], "o2_54": ["s72", 16, 64], "output_163": ["s72", 16, 128], "cat_109": ["s72", 16, 128], "query_82": ["s72", 2048], "key_81": ["s72", 4, 128], "key_rot_27": ["s72", 4, 128], "key_pass_27": ["s72", 4, 0], "unsqueeze_111": ["s72", 1, 64], "cos_83": ["s72", 1, 64], "unsqueeze_112": ["s72", 1, 64], "sin_83": ["s72", 1, 64], "x1_55": ["s72", 4, 64], "x2_55": ["s72", 4, 64], "mul_360": ["s72", 4, 64], "mul_361": ["s72", 4, 64], "o1_55": ["s72", 4, 64], "mul_362": ["s72", 4, 64], "mul_363": ["s72", 4, 64], "o2_55": ["s72", 4, 64], "output_164": ["s72", 4, 128], "cat_111": ["s72", 4, 128], "key_82": ["s72", 512], "output_165": ["s72", 2048], "query_83": ["s72", 16, 128], "output_166": ["s72", 16, 128], "key_83": ["s72", 4, 128], "value_27": ["s72", 4, 128], "attn_output_27": ["s72", 2048], "output_parallel_110": ["s72", 4096], "output_167": ["s72", 4096], "_get_data_attr_55": [4096], "x_301": ["s72", 4096], "x_302": ["s72", 4096], "residual_54": ["s72", 4096], "pow_56": ["s72", 4096], "variance_55": ["s72", 1], "add_167": ["s72", 1], "rsqrt_55": ["s72", 1], "x_303": ["s72", 4096], "x_304": ["s72", 4096], "x_305": ["s72", 4096], "output_parallel_111": ["s72", 14336], "getitem_782": ["s72", 7168], "silu_27": ["s72", 7168], "getitem_783": ["s72", 7168], "x_306": ["s72", 7168], "output_parallel_112": ["s72", 4096], "output_168": ["s72", 4096], "_get_data_attr_56": [4096], "x_307": ["s72", 4096], "x_308": ["s72", 4096], "residual_55": ["s72", 4096], "pow_57": ["s72", 4096], "variance_56": ["s72", 1], "add_169": ["s72", 1], "rsqrt_56": ["s72", 1], "x_309": ["s72", 4096], "x_310": ["s72", 4096], "x_311": ["s72", 4096], "output_parallel_113": ["s72", 3072], "q_28": ["s72", 2048], "k_28": ["s72", 512], "v_28": ["s72", 512], "positions_28": ["s72"], "cos_sin_28": ["s72", 128], "cos_84": ["s72", 64], "sin_84": ["s72", 64], "query_84": ["s72", 16, 128], "query_rot_28": ["s72", 16, 128], "query_pass_28": ["s72", 16, 0], "unsqueeze_113": ["s72", 1, 64], "cos_85": ["s72", 1, 64], "unsqueeze_114": ["s72", 1, 64], "sin_85": ["s72", 1, 64], "x1_56": ["s72", 16, 64], "x2_56": ["s72", 16, 64], "mul_369": ["s72", 16, 64], "mul_370": ["s72", 16, 64], "o1_56": ["s72", 16, 64], "mul_371": ["s72", 16, 64], "mul_372": ["s72", 16, 64], "o2_56": ["s72", 16, 64], "output_169": ["s72", 16, 128], "cat_113": ["s72", 16, 128], "query_85": ["s72", 2048], "key_84": ["s72", 4, 128], "key_rot_28": ["s72", 4, 128], "key_pass_28": ["s72", 4, 0], "unsqueeze_115": ["s72", 1, 64], "cos_86": ["s72", 1, 64], "unsqueeze_116": ["s72", 1, 64], "sin_86": ["s72", 1, 64], "x1_57": ["s72", 4, 64], "x2_57": ["s72", 4, 64], "mul_373": ["s72", 4, 64], "mul_374": ["s72", 4, 64], "o1_57": ["s72", 4, 64], "mul_375": ["s72", 4, 64], "mul_376": ["s72", 4, 64], "o2_57": ["s72", 4, 64], "output_170": ["s72", 4, 128], "cat_115": ["s72", 4, 128], "key_85": ["s72", 512], "output_171": ["s72", 2048], "query_86": ["s72", 16, 128], "output_172": ["s72", 16, 128], "key_86": ["s72", 4, 128], "value_28": ["s72", 4, 128], "attn_output_28": ["s72", 2048], "output_parallel_114": ["s72", 4096], "output_173": ["s72", 4096], "_get_data_attr_57": [4096], "x_312": ["s72", 4096], "x_313": ["s72", 4096], "residual_56": ["s72", 4096], "pow_58": ["s72", 4096], "variance_57": ["s72", 1], "add_173": ["s72", 1], "rsqrt_57": ["s72", 1], "x_314": ["s72", 4096], "x_315": ["s72", 4096], "x_316": ["s72", 4096], "output_parallel_115": ["s72", 14336], "getitem_810": ["s72", 7168], "silu_28": ["s72", 7168], "getitem_811": ["s72", 7168], "x_317": ["s72", 7168], "output_parallel_116": ["s72", 4096], "output_174": ["s72", 4096], "_get_data_attr_58": [4096], "x_318": ["s72", 4096], "x_319": ["s72", 4096], "residual_57": ["s72", 4096], "pow_59": ["s72", 4096], "variance_58": ["s72", 1], "add_175": ["s72", 1], "rsqrt_58": ["s72", 1], "x_320": ["s72", 4096], "x_321": ["s72", 4096], "x_322": ["s72", 4096], "output_parallel_117": ["s72", 3072], "q_29": ["s72", 2048], "k_29": ["s72", 512], "v_29": ["s72", 512], "positions_29": ["s72"], "cos_sin_29": ["s72", 128], "cos_87": ["s72", 64], "sin_87": ["s72", 64], "query_87": ["s72", 16, 128], "query_rot_29": ["s72", 16, 128], "query_pass_29": ["s72", 16, 0], "unsqueeze_117": ["s72", 1, 64], "cos_88": ["s72", 1, 64], "unsqueeze_118": ["s72", 1, 64], "sin_88": ["s72", 1, 64], "x1_58": ["s72", 16, 64], "x2_58": ["s72", 16, 64], "mul_382": ["s72", 16, 64], "mul_383": ["s72", 16, 64], "o1_58": ["s72", 16, 64], "mul_384": ["s72", 16, 64], "mul_385": ["s72", 16, 64], "o2_58": ["s72", 16, 64], "output_175": ["s72", 16, 128], "cat_117": ["s72", 16, 128], "query_88": ["s72", 2048], "key_87": ["s72", 4, 128], "key_rot_29": ["s72", 4, 128], "key_pass_29": ["s72", 4, 0], "unsqueeze_119": ["s72", 1, 64], "cos_89": ["s72", 1, 64], "unsqueeze_120": ["s72", 1, 64], "sin_89": ["s72", 1, 64], "x1_59": ["s72", 4, 64], "x2_59": ["s72", 4, 64], "mul_386": ["s72", 4, 64], "mul_387": ["s72", 4, 64], "o1_59": ["s72", 4, 64], "mul_388": ["s72", 4, 64], "mul_389": ["s72", 4, 64], "o2_59": ["s72", 4, 64], "output_176": ["s72", 4, 128], "cat_119": ["s72", 4, 128], "key_88": ["s72", 512], "output_177": ["s72", 2048], "query_89": ["s72", 16, 128], "output_178": ["s72", 16, 128], "key_89": ["s72", 4, 128], "value_29": ["s72", 4, 128], "attn_output_29": ["s72", 2048], "output_parallel_118": ["s72", 4096], "output_179": ["s72", 4096], "_get_data_attr_59": [4096], "x_323": ["s72", 4096], "x_324": ["s72", 4096], "residual_58": ["s72", 4096], "pow_60": ["s72", 4096], "variance_59": ["s72", 1], "add_179": ["s72", 1], "rsqrt_59": ["s72", 1], "x_325": ["s72", 4096], "x_326": ["s72", 4096], "x_327": ["s72", 4096], "output_parallel_119": ["s72", 14336], "getitem_838": ["s72", 7168], "silu_29": ["s72", 7168], "getitem_839": ["s72", 7168], "x_328": ["s72", 7168], "output_parallel_120": ["s72", 4096], "output_180": ["s72", 4096], "_get_data_attr_60": [4096], "x_329": ["s72", 4096], "x_330": ["s72", 4096], "residual_59": ["s72", 4096], "pow_61": ["s72", 4096], "variance_60": ["s72", 1], "add_181": ["s72", 1], "rsqrt_60": ["s72", 1], "x_331": ["s72", 4096], "x_332": ["s72", 4096], "x_333": ["s72", 4096], "output_parallel_121": ["s72", 3072], "q_30": ["s72", 2048], "k_30": ["s72", 512], "v_30": ["s72", 512], "positions_30": ["s72"], "cos_sin_30": ["s72", 128], "cos_90": ["s72", 64], "sin_90": ["s72", 64], "query_90": ["s72", 16, 128], "query_rot_30": ["s72", 16, 128], "query_pass_30": ["s72", 16, 0], "unsqueeze_121": ["s72", 1, 64], "cos_91": ["s72", 1, 64], "unsqueeze_122": ["s72", 1, 64], "sin_91": ["s72", 1, 64], "x1_60": ["s72", 16, 64], "x2_60": ["s72", 16, 64], "mul_395": ["s72", 16, 64], "mul_396": ["s72", 16, 64], "o1_60": ["s72", 16, 64], "mul_397": ["s72", 16, 64], "mul_398": ["s72", 16, 64], "o2_60": ["s72", 16, 64], "output_181": ["s72", 16, 128], "cat_121": ["s72", 16, 128], "query_91": ["s72", 2048], "key_90": ["s72", 4, 128], "key_rot_30": ["s72", 4, 128], "key_pass_30": ["s72", 4, 0], "unsqueeze_123": ["s72", 1, 64], "cos_92": ["s72", 1, 64], "unsqueeze_124": ["s72", 1, 64], "sin_92": ["s72", 1, 64], "x1_61": ["s72", 4, 64], "x2_61": ["s72", 4, 64], "mul_399": ["s72", 4, 64], "mul_400": ["s72", 4, 64], "o1_61": ["s72", 4, 64], "mul_401": ["s72", 4, 64], "mul_402": ["s72", 4, 64], "o2_61": ["s72", 4, 64], "output_182": ["s72", 4, 128], "cat_123": ["s72", 4, 128], "key_91": ["s72", 512], "output_183": ["s72", 2048], "query_92": ["s72", 16, 128], "output_184": ["s72", 16, 128], "key_92": ["s72", 4, 128], "value_30": ["s72", 4, 128], "attn_output_30": ["s72", 2048], "output_parallel_122": ["s72", 4096], "output_185": ["s72", 4096], "_get_data_attr_61": [4096], "x_334": ["s72", 4096], "x_335": ["s72", 4096], "residual_60": ["s72", 4096], "pow_62": ["s72", 4096], "variance_61": ["s72", 1], "add_185": ["s72", 1], "rsqrt_61": ["s72", 1], "x_336": ["s72", 4096], "x_337": ["s72", 4096], "x_338": ["s72", 4096], "output_parallel_123": ["s72", 14336], "getitem_866": ["s72", 7168], "silu_30": ["s72", 7168], "getitem_867": ["s72", 7168], "x_339": ["s72", 7168], "output_parallel_124": ["s72", 4096], "output_186": ["s72", 4096], "_get_data_attr_62": [4096], "x_340": ["s72", 4096], "x_341": ["s72", 4096], "residual_61": ["s72", 4096], "pow_63": ["s72", 4096], "variance_62": ["s72", 1], "add_187": ["s72", 1], "rsqrt_62": ["s72", 1], "x_342": ["s72", 4096], "x_343": ["s72", 4096], "x_344": ["s72", 4096], "output_parallel_125": ["s72", 3072], "q_31": ["s72", 2048], "k_31": ["s72", 512], "v_31": ["s72", 512], "positions_31": ["s72"], "cos_sin_31": ["s72", 128], "cos_93": ["s72", 64], "sin_93": ["s72", 64], "query_93": ["s72", 16, 128], "query_rot_31": ["s72", 16, 128], "query_pass_31": ["s72", 16, 0], "unsqueeze_125": ["s72", 1, 64], "cos_94": ["s72", 1, 64], "unsqueeze_126": ["s72", 1, 64], "sin_94": ["s72", 1, 64], "x1_62": ["s72", 16, 64], "x2_62": ["s72", 16, 64], "mul_408": ["s72", 16, 64], "mul_409": ["s72", 16, 64], "o1_62": ["s72", 16, 64], "mul_410": ["s72", 16, 64], "mul_411": ["s72", 16, 64], "o2_62": ["s72", 16, 64], "output_187": ["s72", 16, 128], "cat_125": ["s72", 16, 128], "query_94": ["s72", 2048], "key_93": ["s72", 4, 128], "key_rot_31": ["s72", 4, 128], "key_pass_31": ["s72", 4, 0], "unsqueeze_127": ["s72", 1, 64], "cos_95": ["s72", 1, 64], "unsqueeze_128": ["s72", 1, 64], "sin_95": ["s72", 1, 64], "x1_63": ["s72", 4, 64], "x2_63": ["s72", 4, 64], "mul_412": ["s72", 4, 64], "mul_413": ["s72", 4, 64], "o1_63": ["s72", 4, 64], "mul_414": ["s72", 4, 64], "mul_415": ["s72", 4, 64], "o2_63": ["s72", 4, 64], "output_188": ["s72", 4, 128], "cat_127": ["s72", 4, 128], "key_94": ["s72", 512], "output_189": ["s72", 2048], "query_95": ["s72", 16, 128], "output_190": ["s72", 16, 128], "key_95": ["s72", 4, 128], "value_31": ["s72", 4, 128], "attn_output_31": ["s72", 2048], "output_parallel_126": ["s72", 4096], "output_191": ["s72", 4096], "_get_data_attr_63": [4096], "x_345": ["s72", 4096], "x_346": ["s72", 4096], "residual_62": ["s72", 4096], "pow_64": ["s72", 4096], "variance_63": ["s72", 1], "add_191": ["s72", 1], "rsqrt_63": ["s72", 1], "x_347": ["s72", 4096], "x_348": ["s72", 4096], "x_349": ["s72", 4096], "output_parallel_127": ["s72", 14336], "getitem_894": ["s72", 7168], "silu_31": ["s72", 7168], "getitem_895": ["s72", 7168], "x_350": ["s72", 7168], "output_parallel_128": ["s72", 4096], "output_192": ["s72", 4096], "_get_data_attr_64": [4096], "x_351": ["s72", 4096], "x_352": ["s72", 4096], "residual_63": ["s72", 4096], "pow_65": ["s72", 4096], "variance_64": ["s72", 1], "add_193": ["s72", 1], "rsqrt_64": ["s72", 1], "x_353": ["s72", 4096], "x_354": ["s72", 4096], "x_355": ["s72", 4096]}}, "rank": 0, "frame_id": 0, "frame_compile_id": 0, "attempt": 0, "has_payload": "8bea56466f993132fd99de55fe333072"}
	class GraphModule(torch.nn.Module):
	    def forward(self, s72: "Sym(s72)", L_input_ids_: "i32[s72][1]cuda:0", L_self_modules_embed_tokens_parameters_weight_: "bf16[64128, 4096][4096, 1]cuda:0", L_self_modules_layers_modules_0_modules_input_layernorm_parameters_weight_: "bf16[4096][1]cuda:0", L_self_modules_layers_modules_0_modules_self_attn_modules_qkv_proj_parameters_weight_: "bf16[3072, 4096][4096, 1]cuda:0", L_self_modules_layers_modules_0_modules_self_attn_modules_rotary_emb_buffers_cos_sin_cache_: "bf16[131072, 128][128, 1]cuda:0", s80: "Sym(s72)", L_positions_: "i64[s72][1]cuda:0", L_self_modules_layers_modules_0_modules_self_attn_modules_o_proj_parameters_weight_: "bf16[4096, 2048][2048, 1]cuda:0", L_self_modules_layers_modules_0_modules_post_attention_layernorm_parameters_weight_: "bf16[4096][1]cuda:0", L_self_modules_layers_modules_0_modules_mlp_modules_gate_up_proj_parameters_weight_: "bf16[14336, 4096][4096, 1]cuda:0", L_self_modules_layers_modules_0_modules_mlp_modules_down_proj_parameters_weight_: "bf16[4096, 7168][7168, 1]cuda:0", L_self_modules_layers_modules_1_modules_input_layernorm_parameters_weight_: "bf16[4096][1]cuda:0", L_self_modules_layers_modules_1_modules_self_attn_modules_qkv_proj_parameters_weight_: "bf16[3072, 4096][4096, 1]cuda:0", L_self_modules_layers_modules_1_modules_self_attn_modules_o_proj_parameters_weight_: "bf16[4096, 2048][2048, 1]cuda:0", L_self_modules_layers_modules_1_modules_post_attention_layernorm_parameters_weight_: "bf16[4096][1]cuda:0", L_self_modules_layers_modules_1_modules_mlp_modules_gate_up_proj_parameters_weight_: "bf16[14336, 4096][4096, 1]cuda:0", L_self_modules_layers_modules_1_modules_mlp_modules_down_proj_parameters_weight_: "bf16[4096, 7168][7168, 1]cuda:0", L_self_modules_layers_modules_2_modules_input_layernorm_parameters_weight_: "bf16[4096][1]cuda:0", L_self_modules_layers_modules_2_modules_self_attn_modules_qkv_proj_parameters_weight_: "bf16[3072, 4096][4096, 1]cuda:0", L_self_modules_layers_modules_2_modules_self_attn_modules_o_proj_parameters_weight_: "bf16[4096, 2048][2048, 1]cuda:0", L_self_modules_layers_modules_2_modules_post_attention_layernorm_parameters_weight_: "bf16[4096][1]cuda:0", L_self_modules_layers_modules_2_modules_mlp_modules_gate_up_proj_parameters_weight_: "bf16[14336, 4096][4096, 1]cuda:0", L_self_modules_layers_modules_2_modules_mlp_modules_down_proj_parameters_weight_: "bf16[4096, 7168][7168, 1]cuda:0", L_self_modules_layers_modules_3_modules_input_layernorm_parameters_weight_: "bf16[4096][1]cuda:0", L_self_modules_layers_modules_3_modules_self_attn_modules_qkv_proj_parameters_weight_: "bf16[3072, 4096][4096, 1]cuda:0", L_self_modules_layers_modules_3_modules_self_attn_modules_o_proj_parameters_weight_: "bf16[4096, 2048][2048, 1]cuda:0", L_self_modules_layers_modules_3_modules_post_attention_layernorm_parameters_weight_: "bf16[4096][1]cuda:0", L_self_modules_layers_modules_3_modules_mlp_modules_gate_up_proj_parameters_weight_: "bf16[14336, 4096][4096, 1]cuda:0", L_self_modules_layers_modules_3_modules_mlp_modules_down_proj_parameters_weight_: "bf16[4096, 7168][7168, 1]cuda:0", L_self_modules_layers_modules_4_modules_input_layernorm_parameters_weight_: "bf16[4096][1]cuda:0", L_self_modules_layers_modules_4_modules_self_attn_modules_qkv_proj_parameters_weight_: "bf16[3072, 4096][4096, 1]cuda:0", L_self_modules_layers_modules_4_modules_self_attn_modules_o_proj_parameters_weight_: "bf16[4096, 2048][2048, 1]cuda:0", L_self_modules_layers_modules_4_modules_post_attention_layernorm_parameters_weight_: "bf16[4096][1]cuda:0", L_self_modules_layers_modules_4_modules_mlp_modules_gate_up_proj_parameters_weight_: "bf16[14336, 4096][4096, 1]cuda:0", L_self_modules_layers_modules_4_modules_mlp_modules_down_proj_parameters_weight_: "bf16[4096, 7168][7168, 1]cuda:0", L_self_modules_layers_modules_5_modules_input_layernorm_parameters_weight_: "bf16[4096][1]cuda:0", L_self_modules_layers_modules_5_modules_self_attn_modules_qkv_proj_parameters_weight_: "bf16[3072, 4096][4096, 1]cuda:0", L_self_modules_layers_modules_5_modules_self_attn_modules_o_proj_parameters_weight_: "bf16[4096, 2048][2048, 1]cuda:0", L_self_modules_layers_modules_5_modules_post_attention_layernorm_parameters_weight_: "bf16[4096][1]cuda:0", L_self_modules_layers_modules_5_modules_mlp_modules_gate_up_proj_parameters_weight_: "bf16[14336, 4096][4096, 1]cuda:0", L_self_modules_layers_modules_5_modules_mlp_modules_down_proj_parameters_weight_: "bf16[4096, 7168][7168, 1]cuda:0", L_self_modules_layers_modules_6_modules_input_layernorm_parameters_weight_: "bf16[4096][1]cuda:0", L_self_modules_layers_modules_6_modules_self_attn_modules_qkv_proj_parameters_weight_: "bf16[3072, 4096][4096, 1]cuda:0", L_self_modules_layers_modules_6_modules_self_attn_modules_o_proj_parameters_weight_: "bf16[4096, 2048][2048, 1]cuda:0", L_self_modules_layers_modules_6_modules_post_attention_layernorm_parameters_weight_: "bf16[4096][1]cuda:0", L_self_modules_layers_modules_6_modules_mlp_modules_gate_up_proj_parameters_weight_: "bf16[14336, 4096][4096, 1]cuda:0", L_self_modules_layers_modules_6_modules_mlp_modules_down_proj_parameters_weight_: "bf16[4096, 7168][7168, 1]cuda:0", L_self_modules_layers_modules_7_modules_input_layernorm_parameters_weight_: "bf16[4096][1]cuda:0", L_self_modules_layers_modules_7_modules_self_attn_modules_qkv_proj_parameters_weight_: "bf16[3072, 4096][4096, 1]cuda:0", L_self_modules_layers_modules_7_modules_self_attn_modules_o_proj_parameters_weight_: "bf16[4096, 2048][2048, 1]cuda:0", L_self_modules_layers_modules_7_modules_post_attention_layernorm_parameters_weight_: "bf16[4096][1]cuda:0", L_self_modules_layers_modules_7_modules_mlp_modules_gate_up_proj_parameters_weight_: "bf16[14336, 4096][4096, 1]cuda:0", L_self_modules_layers_modules_7_modules_mlp_modules_down_proj_parameters_weight_: "bf16[4096, 7168][7168, 1]cuda:0", L_self_modules_layers_modules_8_modules_input_layernorm_parameters_weight_: "bf16[4096][1]cuda:0", L_self_modules_layers_modules_8_modules_self_attn_modules_qkv_proj_parameters_weight_: "bf16[3072, 4096][4096, 1]cuda:0", L_self_modules_layers_modules_8_modules_self_attn_modules_o_proj_parameters_weight_: "bf16[4096, 2048][2048, 1]cuda:0", L_self_modules_layers_modules_8_modules_post_attention_layernorm_parameters_weight_: "bf16[4096][1]cuda:0", L_self_modules_layers_modules_8_modules_mlp_modules_gate_up_proj_parameters_weight_: "bf16[14336, 4096][4096, 1]cuda:0", L_self_modules_layers_modules_8_modules_mlp_modules_down_proj_parameters_weight_: "bf16[4096, 7168][7168, 1]cuda:0", L_self_modules_layers_modules_9_modules_input_layernorm_parameters_weight_: "bf16[4096][1]cuda:0", L_self_modules_layers_modules_9_modules_self_attn_modules_qkv_proj_parameters_weight_: "bf16[3072, 4096][4096, 1]cuda:0", L_self_modules_layers_modules_9_modules_self_attn_modules_o_proj_parameters_weight_: "bf16[4096, 2048][2048, 1]cuda:0", L_self_modules_layers_modules_9_modules_post_attention_layernorm_parameters_weight_: "bf16[4096][1]cuda:0", L_self_modules_layers_modules_9_modules_mlp_modules_gate_up_proj_parameters_weight_: "bf16[14336, 4096][4096, 1]cuda:0", L_self_modules_layers_modules_9_modules_mlp_modules_down_proj_parameters_weight_: "bf16[4096, 7168][7168, 1]cuda:0", L_self_modules_layers_modules_10_modules_input_layernorm_parameters_weight_: "bf16[4096][1]cuda:0", L_self_modules_layers_modules_10_modules_self_attn_modules_qkv_proj_parameters_weight_: "bf16[3072, 4096][4096, 1]cuda:0", L_self_modules_layers_modules_10_modules_self_attn_modules_o_proj_parameters_weight_: "bf16[4096, 2048][2048, 1]cuda:0", L_self_modules_layers_modules_10_modules_post_attention_layernorm_parameters_weight_: "bf16[4096][1]cuda:0", L_self_modules_layers_modules_10_modules_mlp_modules_gate_up_proj_parameters_weight_: "bf16[14336, 4096][4096, 1]cuda:0", L_self_modules_layers_modules_10_modules_mlp_modules_down_proj_parameters_weight_: "bf16[4096, 7168][7168, 1]cuda:0", L_self_modules_layers_modules_11_modules_input_layernorm_parameters_weight_: "bf16[4096][1]cuda:0", L_self_modules_layers_modules_11_modules_self_attn_modules_qkv_proj_parameters_weight_: "bf16[3072, 4096][4096, 1]cuda:0", L_self_modules_layers_modules_11_modules_self_attn_modules_o_proj_parameters_weight_: "bf16[4096, 2048][2048, 1]cuda:0", L_self_modules_layers_modules_11_modules_post_attention_layernorm_parameters_weight_: "bf16[4096][1]cuda:0", L_self_modules_layers_modules_11_modules_mlp_modules_gate_up_proj_parameters_weight_: "bf16[14336, 4096][4096, 1]cuda:0", L_self_modules_layers_modules_11_modules_mlp_modules_down_proj_parameters_weight_: "bf16[4096, 7168][7168, 1]cuda:0", L_self_modules_layers_modules_12_modules_input_layernorm_parameters_weight_: "bf16[4096][1]cuda:0", L_self_modules_layers_modules_12_modules_self_attn_modules_qkv_proj_parameters_weight_: "bf16[3072, 4096][4096, 1]cuda:0", L_self_modules_layers_modules_12_modules_self_attn_modules_o_proj_parameters_weight_: "bf16[4096, 2048][2048, 1]cuda:0", L_self_modules_layers_modules_12_modules_post_attention_layernorm_parameters_weight_: "bf16[4096][1]cuda:0", L_self_modules_layers_modules_12_modules_mlp_modules_gate_up_proj_parameters_weight_: "bf16[14336, 4096][4096, 1]cuda:0", L_self_modules_layers_modules_12_modules_mlp_modules_down_proj_parameters_weight_: "bf16[4096, 7168][7168, 1]cuda:0", L_self_modules_layers_modules_13_modules_input_layernorm_parameters_weight_: "bf16[4096][1]cuda:0", L_self_modules_layers_modules_13_modules_self_attn_modules_qkv_proj_parameters_weight_: "bf16[3072, 4096][4096, 1]cuda:0", L_self_modules_layers_modules_13_modules_self_attn_modules_o_proj_parameters_weight_: "bf16[4096, 2048][2048, 1]cuda:0", L_self_modules_layers_modules_13_modules_post_attention_layernorm_parameters_weight_: "bf16[4096][1]cuda:0", L_self_modules_layers_modules_13_modules_mlp_modules_gate_up_proj_parameters_weight_: "bf16[14336, 4096][4096, 1]cuda:0", L_self_modules_layers_modules_13_modules_mlp_modules_down_proj_parameters_weight_: "bf16[4096, 7168][7168, 1]cuda:0", L_self_modules_layers_modules_14_modules_input_layernorm_parameters_weight_: "bf16[4096][1]cuda:0", L_self_modules_layers_modules_14_modules_self_attn_modules_qkv_proj_parameters_weight_: "bf16[3072, 4096][4096, 1]cuda:0", L_self_modules_layers_modules_14_modules_self_attn_modules_o_proj_parameters_weight_: "bf16[4096, 2048][2048, 1]cuda:0", L_self_modules_layers_modules_14_modules_post_attention_layernorm_parameters_weight_: "bf16[4096][1]cuda:0", L_self_modules_layers_modules_14_modules_mlp_modules_gate_up_proj_parameters_weight_: "bf16[14336, 4096][4096, 1]cuda:0", L_self_modules_layers_modules_14_modules_mlp_modules_down_proj_parameters_weight_: "bf16[4096, 7168][7168, 1]cuda:0", L_self_modules_layers_modules_15_modules_input_layernorm_parameters_weight_: "bf16[4096][1]cuda:0", L_self_modules_layers_modules_15_modules_self_attn_modules_qkv_proj_parameters_weight_: "bf16[3072, 4096][4096, 1]cuda:0", L_self_modules_layers_modules_15_modules_self_attn_modules_o_proj_parameters_weight_: "bf16[4096, 2048][2048, 1]cuda:0", L_self_modules_layers_modules_15_modules_post_attention_layernorm_parameters_weight_: "bf16[4096][1]cuda:0", L_self_modules_layers_modules_15_modules_mlp_modules_gate_up_proj_parameters_weight_: "bf16[14336, 4096][4096, 1]cuda:0", L_self_modules_layers_modules_15_modules_mlp_modules_down_proj_parameters_weight_: "bf16[4096, 7168][7168, 1]cuda:0", L_self_modules_layers_modules_16_modules_input_layernorm_parameters_weight_: "bf16[4096][1]cuda:0", L_self_modules_layers_modules_16_modules_self_attn_modules_qkv_proj_parameters_weight_: "bf16[3072, 4096][4096, 1]cuda:0", L_self_modules_layers_modules_16_modules_self_attn_modules_o_proj_parameters_weight_: "bf16[4096, 2048][2048, 1]cuda:0", L_self_modules_layers_modules_16_modules_post_attention_layernorm_parameters_weight_: "bf16[4096][1]cuda:0", L_self_modules_layers_modules_16_modules_mlp_modules_gate_up_proj_parameters_weight_: "bf16[14336, 4096][4096, 1]cuda:0", L_self_modules_layers_modules_16_modules_mlp_modules_down_proj_parameters_weight_: "bf16[4096, 7168][7168, 1]cuda:0", L_self_modules_layers_modules_17_modules_input_layernorm_parameters_weight_: "bf16[4096][1]cuda:0", L_self_modules_layers_modules_17_modules_self_attn_modules_qkv_proj_parameters_weight_: "bf16[3072, 4096][4096, 1]cuda:0", L_self_modules_layers_modules_17_modules_self_attn_modules_o_proj_parameters_weight_: "bf16[4096, 2048][2048, 1]cuda:0", L_self_modules_layers_modules_17_modules_post_attention_layernorm_parameters_weight_: "bf16[4096][1]cuda:0", L_self_modules_layers_modules_17_modules_mlp_modules_gate_up_proj_parameters_weight_: "bf16[14336, 4096][4096, 1]cuda:0", L_self_modules_layers_modules_17_modules_mlp_modules_down_proj_parameters_weight_: "bf16[4096, 7168][7168, 1]cuda:0", L_self_modules_layers_modules_18_modules_input_layernorm_parameters_weight_: "bf16[4096][1]cuda:0", L_self_modules_layers_modules_18_modules_self_attn_modules_qkv_proj_parameters_weight_: "bf16[3072, 4096][4096, 1]cuda:0", L_self_modules_layers_modules_18_modules_self_attn_modules_o_proj_parameters_weight_: "bf16[4096, 2048][2048, 1]cuda:0", L_self_modules_layers_modules_18_modules_post_attention_layernorm_parameters_weight_: "bf16[4096][1]cuda:0", L_self_modules_layers_modules_18_modules_mlp_modules_gate_up_proj_parameters_weight_: "bf16[14336, 4096][4096, 1]cuda:0", L_self_modules_layers_modules_18_modules_mlp_modules_down_proj_parameters_weight_: "bf16[4096, 7168][7168, 1]cuda:0", L_self_modules_layers_modules_19_modules_input_layernorm_parameters_weight_: "bf16[4096][1]cuda:0", L_self_modules_layers_modules_19_modules_self_attn_modules_qkv_proj_parameters_weight_: "bf16[3072, 4096][4096, 1]cuda:0", L_self_modules_layers_modules_19_modules_self_attn_modules_o_proj_parameters_weight_: "bf16[4096, 2048][2048, 1]cuda:0", L_self_modules_layers_modules_19_modules_post_attention_layernorm_parameters_weight_: "bf16[4096][1]cuda:0", L_self_modules_layers_modules_19_modules_mlp_modules_gate_up_proj_parameters_weight_: "bf16[14336, 4096][4096, 1]cuda:0", L_self_modules_layers_modules_19_modules_mlp_modules_down_proj_parameters_weight_: "bf16[4096, 7168][7168, 1]cuda:0", L_self_modules_layers_modules_20_modules_input_layernorm_parameters_weight_: "bf16[4096][1]cuda:0", L_self_modules_layers_modules_20_modules_self_attn_modules_qkv_proj_parameters_weight_: "bf16[3072, 4096][4096, 1]cuda:0", L_self_modules_layers_modules_20_modules_self_attn_modules_o_proj_parameters_weight_: "bf16[4096, 2048][2048, 1]cuda:0", L_self_modules_layers_modules_20_modules_post_attention_layernorm_parameters_weight_: "bf16[4096][1]cuda:0", L_self_modules_layers_modules_20_modules_mlp_modules_gate_up_proj_parameters_weight_: "bf16[14336, 4096][4096, 1]cuda:0", L_self_modules_layers_modules_20_modules_mlp_modules_down_proj_parameters_weight_: "bf16[4096, 7168][7168, 1]cuda:0", L_self_modules_layers_modules_21_modules_input_layernorm_parameters_weight_: "bf16[4096][1]cuda:0", L_self_modules_layers_modules_21_modules_self_attn_modules_qkv_proj_parameters_weight_: "bf16[3072, 4096][4096, 1]cuda:0", L_self_modules_layers_modules_21_modules_self_attn_modules_o_proj_parameters_weight_: "bf16[4096, 2048][2048, 1]cuda:0", L_self_modules_layers_modules_21_modules_post_attention_layernorm_parameters_weight_: "bf16[4096][1]cuda:0", L_self_modules_layers_modules_21_modules_mlp_modules_gate_up_proj_parameters_weight_: "bf16[14336, 4096][4096, 1]cuda:0", L_self_modules_layers_modules_21_modules_mlp_modules_down_proj_parameters_weight_: "bf16[4096, 7168][7168, 1]cuda:0", L_self_modules_layers_modules_22_modules_input_layernorm_parameters_weight_: "bf16[4096][1]cuda:0", L_self_modules_layers_modules_22_modules_self_attn_modules_qkv_proj_parameters_weight_: "bf16[3072, 4096][4096, 1]cuda:0", L_self_modules_layers_modules_22_modules_self_attn_modules_o_proj_parameters_weight_: "bf16[4096, 2048][2048, 1]cuda:0", L_self_modules_layers_modules_22_modules_post_attention_layernorm_parameters_weight_: "bf16[4096][1]cuda:0", L_self_modules_layers_modules_22_modules_mlp_modules_gate_up_proj_parameters_weight_: "bf16[14336, 4096][4096, 1]cuda:0", L_self_modules_layers_modules_22_modules_mlp_modules_down_proj_parameters_weight_: "bf16[4096, 7168][7168, 1]cuda:0", L_self_modules_layers_modules_23_modules_input_layernorm_parameters_weight_: "bf16[4096][1]cuda:0", L_self_modules_layers_modules_23_modules_self_attn_modules_qkv_proj_parameters_weight_: "bf16[3072, 4096][4096, 1]cuda:0", L_self_modules_layers_modules_23_modules_self_attn_modules_o_proj_parameters_weight_: "bf16[4096, 2048][2048, 1]cuda:0", L_self_modules_layers_modules_23_modules_post_attention_layernorm_parameters_weight_: "bf16[4096][1]cuda:0", L_self_modules_layers_modules_23_modules_mlp_modules_gate_up_proj_parameters_weight_: "bf16[14336, 4096][4096, 1]cuda:0", L_self_modules_layers_modules_23_modules_mlp_modules_down_proj_parameters_weight_: "bf16[4096, 7168][7168, 1]cuda:0", L_self_modules_layers_modules_24_modules_input_layernorm_parameters_weight_: "bf16[4096][1]cuda:0", L_self_modules_layers_modules_24_modules_self_attn_modules_qkv_proj_parameters_weight_: "bf16[3072, 4096][4096, 1]cuda:0", L_self_modules_layers_modules_24_modules_self_attn_modules_o_proj_parameters_weight_: "bf16[4096, 2048][2048, 1]cuda:0", L_self_modules_layers_modules_24_modules_post_attention_layernorm_parameters_weight_: "bf16[4096][1]cuda:0", L_self_modules_layers_modules_24_modules_mlp_modules_gate_up_proj_parameters_weight_: "bf16[14336, 4096][4096, 1]cuda:0", L_self_modules_layers_modules_24_modules_mlp_modules_down_proj_parameters_weight_: "bf16[4096, 7168][7168, 1]cuda:0", L_self_modules_layers_modules_25_modules_input_layernorm_parameters_weight_: "bf16[4096][1]cuda:0", L_self_modules_layers_modules_25_modules_self_attn_modules_qkv_proj_parameters_weight_: "bf16[3072, 4096][4096, 1]cuda:0", L_self_modules_layers_modules_25_modules_self_attn_modules_o_proj_parameters_weight_: "bf16[4096, 2048][2048, 1]cuda:0", L_self_modules_layers_modules_25_modules_post_attention_layernorm_parameters_weight_: "bf16[4096][1]cuda:0", L_self_modules_layers_modules_25_modules_mlp_modules_gate_up_proj_parameters_weight_: "bf16[14336, 4096][4096, 1]cuda:0", L_self_modules_layers_modules_25_modules_mlp_modules_down_proj_parameters_weight_: "bf16[4096, 7168][7168, 1]cuda:0", L_self_modules_layers_modules_26_modules_input_layernorm_parameters_weight_: "bf16[4096][1]cuda:0", L_self_modules_layers_modules_26_modules_self_attn_modules_qkv_proj_parameters_weight_: "bf16[3072, 4096][4096, 1]cuda:0", L_self_modules_layers_modules_26_modules_self_attn_modules_o_proj_parameters_weight_: "bf16[4096, 2048][2048, 1]cuda:0", L_self_modules_layers_modules_26_modules_post_attention_layernorm_parameters_weight_: "bf16[4096][1]cuda:0", L_self_modules_layers_modules_26_modules_mlp_modules_gate_up_proj_parameters_weight_: "bf16[14336, 4096][4096, 1]cuda:0", L_self_modules_layers_modules_26_modules_mlp_modules_down_proj_parameters_weight_: "bf16[4096, 7168][7168, 1]cuda:0", L_self_modules_layers_modules_27_modules_input_layernorm_parameters_weight_: "bf16[4096][1]cuda:0", L_self_modules_layers_modules_27_modules_self_attn_modules_qkv_proj_parameters_weight_: "bf16[3072, 4096][4096, 1]cuda:0", L_self_modules_layers_modules_27_modules_self_attn_modules_o_proj_parameters_weight_: "bf16[4096, 2048][2048, 1]cuda:0", L_self_modules_layers_modules_27_modules_post_attention_layernorm_parameters_weight_: "bf16[4096][1]cuda:0", L_self_modules_layers_modules_27_modules_mlp_modules_gate_up_proj_parameters_weight_: "bf16[14336, 4096][4096, 1]cuda:0", L_self_modules_layers_modules_27_modules_mlp_modules_down_proj_parameters_weight_: "bf16[4096, 7168][7168, 1]cuda:0", L_self_modules_layers_modules_28_modules_input_layernorm_parameters_weight_: "bf16[4096][1]cuda:0", L_self_modules_layers_modules_28_modules_self_attn_modules_qkv_proj_parameters_weight_: "bf16[3072, 4096][4096, 1]cuda:0", L_self_modules_layers_modules_28_modules_self_attn_modules_o_proj_parameters_weight_: "bf16[4096, 2048][2048, 1]cuda:0", L_self_modules_layers_modules_28_modules_post_attention_layernorm_parameters_weight_: "bf16[4096][1]cuda:0", L_self_modules_layers_modules_28_modules_mlp_modules_gate_up_proj_parameters_weight_: "bf16[14336, 4096][4096, 1]cuda:0", L_self_modules_layers_modules_28_modules_mlp_modules_down_proj_parameters_weight_: "bf16[4096, 7168][7168, 1]cuda:0", L_self_modules_layers_modules_29_modules_input_layernorm_parameters_weight_: "bf16[4096][1]cuda:0", L_self_modules_layers_modules_29_modules_self_attn_modules_qkv_proj_parameters_weight_: "bf16[3072, 4096][4096, 1]cuda:0", L_self_modules_layers_modules_29_modules_self_attn_modules_o_proj_parameters_weight_: "bf16[4096, 2048][2048, 1]cuda:0", L_self_modules_layers_modules_29_modules_post_attention_layernorm_parameters_weight_: "bf16[4096][1]cuda:0", L_self_modules_layers_modules_29_modules_mlp_modules_gate_up_proj_parameters_weight_: "bf16[14336, 4096][4096, 1]cuda:0", L_self_modules_layers_modules_29_modules_mlp_modules_down_proj_parameters_weight_: "bf16[4096, 7168][7168, 1]cuda:0", L_self_modules_layers_modules_30_modules_input_layernorm_parameters_weight_: "bf16[4096][1]cuda:0", L_self_modules_layers_modules_30_modules_self_attn_modules_qkv_proj_parameters_weight_: "bf16[3072, 4096][4096, 1]cuda:0", L_self_modules_layers_modules_30_modules_self_attn_modules_o_proj_parameters_weight_: "bf16[4096, 2048][2048, 1]cuda:0", L_self_modules_layers_modules_30_modules_post_attention_layernorm_parameters_weight_: "bf16[4096][1]cuda:0", L_self_modules_layers_modules_30_modules_mlp_modules_gate_up_proj_parameters_weight_: "bf16[14336, 4096][4096, 1]cuda:0", L_self_modules_layers_modules_30_modules_mlp_modules_down_proj_parameters_weight_: "bf16[4096, 7168][7168, 1]cuda:0", L_self_modules_layers_modules_31_modules_input_layernorm_parameters_weight_: "bf16[4096][1]cuda:0", L_self_modules_layers_modules_31_modules_self_attn_modules_qkv_proj_parameters_weight_: "bf16[3072, 4096][4096, 1]cuda:0", L_self_modules_layers_modules_31_modules_self_attn_modules_o_proj_parameters_weight_: "bf16[4096, 2048][2048, 1]cuda:0", L_self_modules_layers_modules_31_modules_post_attention_layernorm_parameters_weight_: "bf16[4096][1]cuda:0", L_self_modules_layers_modules_31_modules_mlp_modules_gate_up_proj_parameters_weight_: "bf16[14336, 4096][4096, 1]cuda:0", L_self_modules_layers_modules_31_modules_mlp_modules_down_proj_parameters_weight_: "bf16[4096, 7168][7168, 1]cuda:0", L_self_modules_norm_parameters_weight_: "bf16[4096][1]cuda:0"):
	        l_input_ids_ = L_input_ids_
	        l_self_modules_embed_tokens_parameters_weight_ = L_self_modules_embed_tokens_parameters_weight_
	        l_self_modules_layers_modules_0_modules_input_layernorm_parameters_weight_ = L_self_modules_layers_modules_0_modules_input_layernorm_parameters_weight_
	        l_self_modules_layers_modules_0_modules_self_attn_modules_qkv_proj_parameters_weight_ = L_self_modules_layers_modules_0_modules_self_attn_modules_qkv_proj_parameters_weight_
	        l_self_modules_layers_modules_0_modules_self_attn_modules_rotary_emb_buffers_cos_sin_cache_ = L_self_modules_layers_modules_0_modules_self_attn_modules_rotary_emb_buffers_cos_sin_cache_
	        l_positions_ = L_positions_
	        l_self_modules_layers_modules_0_modules_self_attn_modules_o_proj_parameters_weight_ = L_self_modules_layers_modules_0_modules_self_attn_modules_o_proj_parameters_weight_
	        l_self_modules_layers_modules_0_modules_post_attention_layernorm_parameters_weight_ = L_self_modules_layers_modules_0_modules_post_attention_layernorm_parameters_weight_
	        l_self_modules_layers_modules_0_modules_mlp_modules_gate_up_proj_parameters_weight_ = L_self_modules_layers_modules_0_modules_mlp_modules_gate_up_proj_parameters_weight_
	        l_self_modules_layers_modules_0_modules_mlp_modules_down_proj_parameters_weight_ = L_self_modules_layers_modules_0_modules_mlp_modules_down_proj_parameters_weight_
	        l_self_modules_layers_modules_1_modules_input_layernorm_parameters_weight_ = L_self_modules_layers_modules_1_modules_input_layernorm_parameters_weight_
	        l_self_modules_layers_modules_1_modules_self_attn_modules_qkv_proj_parameters_weight_ = L_self_modules_layers_modules_1_modules_self_attn_modules_qkv_proj_parameters_weight_
	        l_self_modules_layers_modules_1_modules_self_attn_modules_o_proj_parameters_weight_ = L_self_modules_layers_modules_1_modules_self_attn_modules_o_proj_parameters_weight_
	        l_self_modules_layers_modules_1_modules_post_attention_layernorm_parameters_weight_ = L_self_modules_layers_modules_1_modules_post_attention_layernorm_parameters_weight_
	        l_self_modules_layers_modules_1_modules_mlp_modules_gate_up_proj_parameters_weight_ = L_self_modules_layers_modules_1_modules_mlp_modules_gate_up_proj_parameters_weight_
	        l_self_modules_layers_modules_1_modules_mlp_modules_down_proj_parameters_weight_ = L_self_modules_layers_modules_1_modules_mlp_modules_down_proj_parameters_weight_
	        l_self_modules_layers_modules_2_modules_input_layernorm_parameters_weight_ = L_self_modules_layers_modules_2_modules_input_layernorm_parameters_weight_
	        l_self_modules_layers_modules_2_modules_self_attn_modules_qkv_proj_parameters_weight_ = L_self_modules_layers_modules_2_modules_self_attn_modules_qkv_proj_parameters_weight_
	        l_self_modules_layers_modules_2_modules_self_attn_modules_o_proj_parameters_weight_ = L_self_modules_layers_modules_2_modules_self_attn_modules_o_proj_parameters_weight_
	        l_self_modules_layers_modules_2_modules_post_attention_layernorm_parameters_weight_ = L_self_modules_layers_modules_2_modules_post_attention_layernorm_parameters_weight_
	        l_self_modules_layers_modules_2_modules_mlp_modules_gate_up_proj_parameters_weight_ = L_self_modules_layers_modules_2_modules_mlp_modules_gate_up_proj_parameters_weight_
	        l_self_modules_layers_modules_2_modules_mlp_modules_down_proj_parameters_weight_ = L_self_modules_layers_modules_2_modules_mlp_modules_down_proj_parameters_weight_
	        l_self_modules_layers_modules_3_modules_input_layernorm_parameters_weight_ = L_self_modules_layers_modules_3_modules_input_layernorm_parameters_weight_
	        l_self_modules_layers_modules_3_modules_self_attn_modules_qkv_proj_parameters_weight_ = L_self_modules_layers_modules_3_modules_self_attn_modules_qkv_proj_parameters_weight_
	        l_self_modules_layers_modules_3_modules_self_attn_modules_o_proj_parameters_weight_ = L_self_modules_layers_modules_3_modules_self_attn_modules_o_proj_parameters_weight_
	        l_self_modules_layers_modules_3_modules_post_attention_layernorm_parameters_weight_ = L_self_modules_layers_modules_3_modules_post_attention_layernorm_parameters_weight_
	        l_self_modules_layers_modules_3_modules_mlp_modules_gate_up_proj_parameters_weight_ = L_self_modules_layers_modules_3_modules_mlp_modules_gate_up_proj_parameters_weight_
	        l_self_modules_layers_modules_3_modules_mlp_modules_down_proj_parameters_weight_ = L_self_modules_layers_modules_3_modules_mlp_modules_down_proj_parameters_weight_
	        l_self_modules_layers_modules_4_modules_input_layernorm_parameters_weight_ = L_self_modules_layers_modules_4_modules_input_layernorm_parameters_weight_
	        l_self_modules_layers_modules_4_modules_self_attn_modules_qkv_proj_parameters_weight_ = L_self_modules_layers_modules_4_modules_self_attn_modules_qkv_proj_parameters_weight_
	        l_self_modules_layers_modules_4_modules_self_attn_modules_o_proj_parameters_weight_ = L_self_modules_layers_modules_4_modules_self_attn_modules_o_proj_parameters_weight_
	        l_self_modules_layers_modules_4_modules_post_attention_layernorm_parameters_weight_ = L_self_modules_layers_modules_4_modules_post_attention_layernorm_parameters_weight_
	        l_self_modules_layers_modules_4_modules_mlp_modules_gate_up_proj_parameters_weight_ = L_self_modules_layers_modules_4_modules_mlp_modules_gate_up_proj_parameters_weight_
	        l_self_modules_layers_modules_4_modules_mlp_modules_down_proj_parameters_weight_ = L_self_modules_layers_modules_4_modules_mlp_modules_down_proj_parameters_weight_
	        l_self_modules_layers_modules_5_modules_input_layernorm_parameters_weight_ = L_self_modules_layers_modules_5_modules_input_layernorm_parameters_weight_
	        l_self_modules_layers_modules_5_modules_self_attn_modules_qkv_proj_parameters_weight_ = L_self_modules_layers_modules_5_modules_self_attn_modules_qkv_proj_parameters_weight_
	        l_self_modules_layers_modules_5_modules_self_attn_modules_o_proj_parameters_weight_ = L_self_modules_layers_modules_5_modules_self_attn_modules_o_proj_parameters_weight_
	        l_self_modules_layers_modules_5_modules_post_attention_layernorm_parameters_weight_ = L_self_modules_layers_modules_5_modules_post_attention_layernorm_parameters_weight_
	        l_self_modules_layers_modules_5_modules_mlp_modules_gate_up_proj_parameters_weight_ = L_self_modules_layers_modules_5_modules_mlp_modules_gate_up_proj_parameters_weight_
	        l_self_modules_layers_modules_5_modules_mlp_modules_down_proj_parameters_weight_ = L_self_modules_layers_modules_5_modules_mlp_modules_down_proj_parameters_weight_
	        l_self_modules_layers_modules_6_modules_input_layernorm_parameters_weight_ = L_self_modules_layers_modules_6_modules_input_layernorm_parameters_weight_
	        l_self_modules_layers_modules_6_modules_self_attn_modules_qkv_proj_parameters_weight_ = L_self_modules_layers_modules_6_modules_self_attn_modules_qkv_proj_parameters_weight_
	        l_self_modules_layers_modules_6_modules_self_attn_modules_o_proj_parameters_weight_ = L_self_modules_layers_modules_6_modules_self_attn_modules_o_proj_parameters_weight_
	        l_self_modules_layers_modules_6_modules_post_attention_layernorm_parameters_weight_ = L_self_modules_layers_modules_6_modules_post_attention_layernorm_parameters_weight_
	        l_self_modules_layers_modules_6_modules_mlp_modules_gate_up_proj_parameters_weight_ = L_self_modules_layers_modules_6_modules_mlp_modules_gate_up_proj_parameters_weight_
	        l_self_modules_layers_modules_6_modules_mlp_modules_down_proj_parameters_weight_ = L_self_modules_layers_modules_6_modules_mlp_modules_down_proj_parameters_weight_
	        l_self_modules_layers_modules_7_modules_input_layernorm_parameters_weight_ = L_self_modules_layers_modules_7_modules_input_layernorm_parameters_weight_
	        l_self_modules_layers_modules_7_modules_self_attn_modules_qkv_proj_parameters_weight_ = L_self_modules_layers_modules_7_modules_self_attn_modules_qkv_proj_parameters_weight_
	        l_self_modules_layers_modules_7_modules_self_attn_modules_o_proj_parameters_weight_ = L_self_modules_layers_modules_7_modules_self_attn_modules_o_proj_parameters_weight_
	        l_self_modules_layers_modules_7_modules_post_attention_layernorm_parameters_weight_ = L_self_modules_layers_modules_7_modules_post_attention_layernorm_parameters_weight_
	        l_self_modules_layers_modules_7_modules_mlp_modules_gate_up_proj_parameters_weight_ = L_self_modules_layers_modules_7_modules_mlp_modules_gate_up_proj_parameters_weight_
	        l_self_modules_layers_modules_7_modules_mlp_modules_down_proj_parameters_weight_ = L_self_modules_layers_modules_7_modules_mlp_modules_down_proj_parameters_weight_
	        l_self_modules_layers_modules_8_modules_input_layernorm_parameters_weight_ = L_self_modules_layers_modules_8_modules_input_layernorm_parameters_weight_
	        l_self_modules_layers_modules_8_modules_self_attn_modules_qkv_proj_parameters_weight_ = L_self_modules_layers_modules_8_modules_self_attn_modules_qkv_proj_parameters_weight_
	        l_self_modules_layers_modules_8_modules_self_attn_modules_o_proj_parameters_weight_ = L_self_modules_layers_modules_8_modules_self_attn_modules_o_proj_parameters_weight_
	        l_self_modules_layers_modules_8_modules_post_attention_layernorm_parameters_weight_ = L_self_modules_layers_modules_8_modules_post_attention_layernorm_parameters_weight_
	        l_self_modules_layers_modules_8_modules_mlp_modules_gate_up_proj_parameters_weight_ = L_self_modules_layers_modules_8_modules_mlp_modules_gate_up_proj_parameters_weight_
	        l_self_modules_layers_modules_8_modules_mlp_modules_down_proj_parameters_weight_ = L_self_modules_layers_modules_8_modules_mlp_modules_down_proj_parameters_weight_
	        l_self_modules_layers_modules_9_modules_input_layernorm_parameters_weight_ = L_self_modules_layers_modules_9_modules_input_layernorm_parameters_weight_
	        l_self_modules_layers_modules_9_modules_self_attn_modules_qkv_proj_parameters_weight_ = L_self_modules_layers_modules_9_modules_self_attn_modules_qkv_proj_parameters_weight_
	        l_self_modules_layers_modules_9_modules_self_attn_modules_o_proj_parameters_weight_ = L_self_modules_layers_modules_9_modules_self_attn_modules_o_proj_parameters_weight_
	        l_self_modules_layers_modules_9_modules_post_attention_layernorm_parameters_weight_ = L_self_modules_layers_modules_9_modules_post_attention_layernorm_parameters_weight_
	        l_self_modules_layers_modules_9_modules_mlp_modules_gate_up_proj_parameters_weight_ = L_self_modules_layers_modules_9_modules_mlp_modules_gate_up_proj_parameters_weight_
	        l_self_modules_layers_modules_9_modules_mlp_modules_down_proj_parameters_weight_ = L_self_modules_layers_modules_9_modules_mlp_modules_down_proj_parameters_weight_
	        l_self_modules_layers_modules_10_modules_input_layernorm_parameters_weight_ = L_self_modules_layers_modules_10_modules_input_layernorm_parameters_weight_
	        l_self_modules_layers_modules_10_modules_self_attn_modules_qkv_proj_parameters_weight_ = L_self_modules_layers_modules_10_modules_self_attn_modules_qkv_proj_parameters_weight_
	        l_self_modules_layers_modules_10_modules_self_attn_modules_o_proj_parameters_weight_ = L_self_modules_layers_modules_10_modules_self_attn_modules_o_proj_parameters_weight_
	        l_self_modules_layers_modules_10_modules_post_attention_layernorm_parameters_weight_ = L_self_modules_layers_modules_10_modules_post_attention_layernorm_parameters_weight_
	        l_self_modules_layers_modules_10_modules_mlp_modules_gate_up_proj_parameters_weight_ = L_self_modules_layers_modules_10_modules_mlp_modules_gate_up_proj_parameters_weight_
	        l_self_modules_layers_modules_10_modules_mlp_modules_down_proj_parameters_weight_ = L_self_modules_layers_modules_10_modules_mlp_modules_down_proj_parameters_weight_
	        l_self_modules_layers_modules_11_modules_input_layernorm_parameters_weight_ = L_self_modules_layers_modules_11_modules_input_layernorm_parameters_weight_
	        l_self_modules_layers_modules_11_modules_self_attn_modules_qkv_proj_parameters_weight_ = L_self_modules_layers_modules_11_modules_self_attn_modules_qkv_proj_parameters_weight_
	        l_self_modules_layers_modules_11_modules_self_attn_modules_o_proj_parameters_weight_ = L_self_modules_layers_modules_11_modules_self_attn_modules_o_proj_parameters_weight_
	        l_self_modules_layers_modules_11_modules_post_attention_layernorm_parameters_weight_ = L_self_modules_layers_modules_11_modules_post_attention_layernorm_parameters_weight_
	        l_self_modules_layers_modules_11_modules_mlp_modules_gate_up_proj_parameters_weight_ = L_self_modules_layers_modules_11_modules_mlp_modules_gate_up_proj_parameters_weight_
	        l_self_modules_layers_modules_11_modules_mlp_modules_down_proj_parameters_weight_ = L_self_modules_layers_modules_11_modules_mlp_modules_down_proj_parameters_weight_
	        l_self_modules_layers_modules_12_modules_input_layernorm_parameters_weight_ = L_self_modules_layers_modules_12_modules_input_layernorm_parameters_weight_
	        l_self_modules_layers_modules_12_modules_self_attn_modules_qkv_proj_parameters_weight_ = L_self_modules_layers_modules_12_modules_self_attn_modules_qkv_proj_parameters_weight_
	        l_self_modules_layers_modules_12_modules_self_attn_modules_o_proj_parameters_weight_ = L_self_modules_layers_modules_12_modules_self_attn_modules_o_proj_parameters_weight_
	        l_self_modules_layers_modules_12_modules_post_attention_layernorm_parameters_weight_ = L_self_modules_layers_modules_12_modules_post_attention_layernorm_parameters_weight_
	        l_self_modules_layers_modules_12_modules_mlp_modules_gate_up_proj_parameters_weight_ = L_self_modules_layers_modules_12_modules_mlp_modules_gate_up_proj_parameters_weight_
	        l_self_modules_layers_modules_12_modules_mlp_modules_down_proj_parameters_weight_ = L_self_modules_layers_modules_12_modules_mlp_modules_down_proj_parameters_weight_
	        l_self_modules_layers_modules_13_modules_input_layernorm_parameters_weight_ = L_self_modules_layers_modules_13_modules_input_layernorm_parameters_weight_
	        l_self_modules_layers_modules_13_modules_self_attn_modules_qkv_proj_parameters_weight_ = L_self_modules_layers_modules_13_modules_self_attn_modules_qkv_proj_parameters_weight_
	        l_self_modules_layers_modules_13_modules_self_attn_modules_o_proj_parameters_weight_ = L_self_modules_layers_modules_13_modules_self_attn_modules_o_proj_parameters_weight_
	        l_self_modules_layers_modules_13_modules_post_attention_layernorm_parameters_weight_ = L_self_modules_layers_modules_13_modules_post_attention_layernorm_parameters_weight_
	        l_self_modules_layers_modules_13_modules_mlp_modules_gate_up_proj_parameters_weight_ = L_self_modules_layers_modules_13_modules_mlp_modules_gate_up_proj_parameters_weight_
	        l_self_modules_layers_modules_13_modules_mlp_modules_down_proj_parameters_weight_ = L_self_modules_layers_modules_13_modules_mlp_modules_down_proj_parameters_weight_
	        l_self_modules_layers_modules_14_modules_input_layernorm_parameters_weight_ = L_self_modules_layers_modules_14_modules_input_layernorm_parameters_weight_
	        l_self_modules_layers_modules_14_modules_self_attn_modules_qkv_proj_parameters_weight_ = L_self_modules_layers_modules_14_modules_self_attn_modules_qkv_proj_parameters_weight_
	        l_self_modules_layers_modules_14_modules_self_attn_modules_o_proj_parameters_weight_ = L_self_modules_layers_modules_14_modules_self_attn_modules_o_proj_parameters_weight_
	        l_self_modules_layers_modules_14_modules_post_attention_layernorm_parameters_weight_ = L_self_modules_layers_modules_14_modules_post_attention_layernorm_parameters_weight_
	        l_self_modules_layers_modules_14_modules_mlp_modules_gate_up_proj_parameters_weight_ = L_self_modules_layers_modules_14_modules_mlp_modules_gate_up_proj_parameters_weight_
	        l_self_modules_layers_modules_14_modules_mlp_modules_down_proj_parameters_weight_ = L_self_modules_layers_modules_14_modules_mlp_modules_down_proj_parameters_weight_
	        l_self_modules_layers_modules_15_modules_input_layernorm_parameters_weight_ = L_self_modules_layers_modules_15_modules_input_layernorm_parameters_weight_
	        l_self_modules_layers_modules_15_modules_self_attn_modules_qkv_proj_parameters_weight_ = L_self_modules_layers_modules_15_modules_self_attn_modules_qkv_proj_parameters_weight_
	        l_self_modules_layers_modules_15_modules_self_attn_modules_o_proj_parameters_weight_ = L_self_modules_layers_modules_15_modules_self_attn_modules_o_proj_parameters_weight_
	        l_self_modules_layers_modules_15_modules_post_attention_layernorm_parameters_weight_ = L_self_modules_layers_modules_15_modules_post_attention_layernorm_parameters_weight_
	        l_self_modules_layers_modules_15_modules_mlp_modules_gate_up_proj_parameters_weight_ = L_self_modules_layers_modules_15_modules_mlp_modules_gate_up_proj_parameters_weight_
	        l_self_modules_layers_modules_15_modules_mlp_modules_down_proj_parameters_weight_ = L_self_modules_layers_modules_15_modules_mlp_modules_down_proj_parameters_weight_
	        l_self_modules_layers_modules_16_modules_input_layernorm_parameters_weight_ = L_self_modules_layers_modules_16_modules_input_layernorm_parameters_weight_
	        l_self_modules_layers_modules_16_modules_self_attn_modules_qkv_proj_parameters_weight_ = L_self_modules_layers_modules_16_modules_self_attn_modules_qkv_proj_parameters_weight_
	        l_self_modules_layers_modules_16_modules_self_attn_modules_o_proj_parameters_weight_ = L_self_modules_layers_modules_16_modules_self_attn_modules_o_proj_parameters_weight_
	        l_self_modules_layers_modules_16_modules_post_attention_layernorm_parameters_weight_ = L_self_modules_layers_modules_16_modules_post_attention_layernorm_parameters_weight_
	        l_self_modules_layers_modules_16_modules_mlp_modules_gate_up_proj_parameters_weight_ = L_self_modules_layers_modules_16_modules_mlp_modules_gate_up_proj_parameters_weight_
	        l_self_modules_layers_modules_16_modules_mlp_modules_down_proj_parameters_weight_ = L_self_modules_layers_modules_16_modules_mlp_modules_down_proj_parameters_weight_
	        l_self_modules_layers_modules_17_modules_input_layernorm_parameters_weight_ = L_self_modules_layers_modules_17_modules_input_layernorm_parameters_weight_
	        l_self_modules_layers_modules_17_modules_self_attn_modules_qkv_proj_parameters_weight_ = L_self_modules_layers_modules_17_modules_self_attn_modules_qkv_proj_parameters_weight_
	        l_self_modules_layers_modules_17_modules_self_attn_modules_o_proj_parameters_weight_ = L_self_modules_layers_modules_17_modules_self_attn_modules_o_proj_parameters_weight_
	        l_self_modules_layers_modules_17_modules_post_attention_layernorm_parameters_weight_ = L_self_modules_layers_modules_17_modules_post_attention_layernorm_parameters_weight_
	        l_self_modules_layers_modules_17_modules_mlp_modules_gate_up_proj_parameters_weight_ = L_self_modules_layers_modules_17_modules_mlp_modules_gate_up_proj_parameters_weight_
	        l_self_modules_layers_modules_17_modules_mlp_modules_down_proj_parameters_weight_ = L_self_modules_layers_modules_17_modules_mlp_modules_down_proj_parameters_weight_
	        l_self_modules_layers_modules_18_modules_input_layernorm_parameters_weight_ = L_self_modules_layers_modules_18_modules_input_layernorm_parameters_weight_
	        l_self_modules_layers_modules_18_modules_self_attn_modules_qkv_proj_parameters_weight_ = L_self_modules_layers_modules_18_modules_self_attn_modules_qkv_proj_parameters_weight_
	        l_self_modules_layers_modules_18_modules_self_attn_modules_o_proj_parameters_weight_ = L_self_modules_layers_modules_18_modules_self_attn_modules_o_proj_parameters_weight_
	        l_self_modules_layers_modules_18_modules_post_attention_layernorm_parameters_weight_ = L_self_modules_layers_modules_18_modules_post_attention_layernorm_parameters_weight_
	        l_self_modules_layers_modules_18_modules_mlp_modules_gate_up_proj_parameters_weight_ = L_self_modules_layers_modules_18_modules_mlp_modules_gate_up_proj_parameters_weight_
	        l_self_modules_layers_modules_18_modules_mlp_modules_down_proj_parameters_weight_ = L_self_modules_layers_modules_18_modules_mlp_modules_down_proj_parameters_weight_
	        l_self_modules_layers_modules_19_modules_input_layernorm_parameters_weight_ = L_self_modules_layers_modules_19_modules_input_layernorm_parameters_weight_
	        l_self_modules_layers_modules_19_modules_self_attn_modules_qkv_proj_parameters_weight_ = L_self_modules_layers_modules_19_modules_self_attn_modules_qkv_proj_parameters_weight_
	        l_self_modules_layers_modules_19_modules_self_attn_modules_o_proj_parameters_weight_ = L_self_modules_layers_modules_19_modules_self_attn_modules_o_proj_parameters_weight_
	        l_self_modules_layers_modules_19_modules_post_attention_layernorm_parameters_weight_ = L_self_modules_layers_modules_19_modules_post_attention_layernorm_parameters_weight_
	        l_self_modules_layers_modules_19_modules_mlp_modules_gate_up_proj_parameters_weight_ = L_self_modules_layers_modules_19_modules_mlp_modules_gate_up_proj_parameters_weight_
	        l_self_modules_layers_modules_19_modules_mlp_modules_down_proj_parameters_weight_ = L_self_modules_layers_modules_19_modules_mlp_modules_down_proj_parameters_weight_
	        l_self_modules_layers_modules_20_modules_input_layernorm_parameters_weight_ = L_self_modules_layers_modules_20_modules_input_layernorm_parameters_weight_
	        l_self_modules_layers_modules_20_modules_self_attn_modules_qkv_proj_parameters_weight_ = L_self_modules_layers_modules_20_modules_self_attn_modules_qkv_proj_parameters_weight_
	        l_self_modules_layers_modules_20_modules_self_attn_modules_o_proj_parameters_weight_ = L_self_modules_layers_modules_20_modules_self_attn_modules_o_proj_parameters_weight_
	        l_self_modules_layers_modules_20_modules_post_attention_layernorm_parameters_weight_ = L_self_modules_layers_modules_20_modules_post_attention_layernorm_parameters_weight_
	        l_self_modules_layers_modules_20_modules_mlp_modules_gate_up_proj_parameters_weight_ = L_self_modules_layers_modules_20_modules_mlp_modules_gate_up_proj_parameters_weight_
	        l_self_modules_layers_modules_20_modules_mlp_modules_down_proj_parameters_weight_ = L_self_modules_layers_modules_20_modules_mlp_modules_down_proj_parameters_weight_
	        l_self_modules_layers_modules_21_modules_input_layernorm_parameters_weight_ = L_self_modules_layers_modules_21_modules_input_layernorm_parameters_weight_
	        l_self_modules_layers_modules_21_modules_self_attn_modules_qkv_proj_parameters_weight_ = L_self_modules_layers_modules_21_modules_self_attn_modules_qkv_proj_parameters_weight_
	        l_self_modules_layers_modules_21_modules_self_attn_modules_o_proj_parameters_weight_ = L_self_modules_layers_modules_21_modules_self_attn_modules_o_proj_parameters_weight_
	        l_self_modules_layers_modules_21_modules_post_attention_layernorm_parameters_weight_ = L_self_modules_layers_modules_21_modules_post_attention_layernorm_parameters_weight_
	        l_self_modules_layers_modules_21_modules_mlp_modules_gate_up_proj_parameters_weight_ = L_self_modules_layers_modules_21_modules_mlp_modules_gate_up_proj_parameters_weight_
	        l_self_modules_layers_modules_21_modules_mlp_modules_down_proj_parameters_weight_ = L_self_modules_layers_modules_21_modules_mlp_modules_down_proj_parameters_weight_
	        l_self_modules_layers_modules_22_modules_input_layernorm_parameters_weight_ = L_self_modules_layers_modules_22_modules_input_layernorm_parameters_weight_
	        l_self_modules_layers_modules_22_modules_self_attn_modules_qkv_proj_parameters_weight_ = L_self_modules_layers_modules_22_modules_self_attn_modules_qkv_proj_parameters_weight_
	        l_self_modules_layers_modules_22_modules_self_attn_modules_o_proj_parameters_weight_ = L_self_modules_layers_modules_22_modules_self_attn_modules_o_proj_parameters_weight_
	        l_self_modules_layers_modules_22_modules_post_attention_layernorm_parameters_weight_ = L_self_modules_layers_modules_22_modules_post_attention_layernorm_parameters_weight_
	        l_self_modules_layers_modules_22_modules_mlp_modules_gate_up_proj_parameters_weight_ = L_self_modules_layers_modules_22_modules_mlp_modules_gate_up_proj_parameters_weight_
	        l_self_modules_layers_modules_22_modules_mlp_modules_down_proj_parameters_weight_ = L_self_modules_layers_modules_22_modules_mlp_modules_down_proj_parameters_weight_
	        l_self_modules_layers_modules_23_modules_input_layernorm_parameters_weight_ = L_self_modules_layers_modules_23_modules_input_layernorm_parameters_weight_
	        l_self_modules_layers_modules_23_modules_self_attn_modules_qkv_proj_parameters_weight_ = L_self_modules_layers_modules_23_modules_self_attn_modules_qkv_proj_parameters_weight_
	        l_self_modules_layers_modules_23_modules_self_attn_modules_o_proj_parameters_weight_ = L_self_modules_layers_modules_23_modules_self_attn_modules_o_proj_parameters_weight_
	        l_self_modules_layers_modules_23_modules_post_attention_layernorm_parameters_weight_ = L_self_modules_layers_modules_23_modules_post_attention_layernorm_parameters_weight_
	        l_self_modules_layers_modules_23_modules_mlp_modules_gate_up_proj_parameters_weight_ = L_self_modules_layers_modules_23_modules_mlp_modules_gate_up_proj_parameters_weight_
	        l_self_modules_layers_modules_23_modules_mlp_modules_down_proj_parameters_weight_ = L_self_modules_layers_modules_23_modules_mlp_modules_down_proj_parameters_weight_
	        l_self_modules_layers_modules_24_modules_input_layernorm_parameters_weight_ = L_self_modules_layers_modules_24_modules_input_layernorm_parameters_weight_
	        l_self_modules_layers_modules_24_modules_self_attn_modules_qkv_proj_parameters_weight_ = L_self_modules_layers_modules_24_modules_self_attn_modules_qkv_proj_parameters_weight_
	        l_self_modules_layers_modules_24_modules_self_attn_modules_o_proj_parameters_weight_ = L_self_modules_layers_modules_24_modules_self_attn_modules_o_proj_parameters_weight_
	        l_self_modules_layers_modules_24_modules_post_attention_layernorm_parameters_weight_ = L_self_modules_layers_modules_24_modules_post_attention_layernorm_parameters_weight_
	        l_self_modules_layers_modules_24_modules_mlp_modules_gate_up_proj_parameters_weight_ = L_self_modules_layers_modules_24_modules_mlp_modules_gate_up_proj_parameters_weight_
	        l_self_modules_layers_modules_24_modules_mlp_modules_down_proj_parameters_weight_ = L_self_modules_layers_modules_24_modules_mlp_modules_down_proj_parameters_weight_
	        l_self_modules_layers_modules_25_modules_input_layernorm_parameters_weight_ = L_self_modules_layers_modules_25_modules_input_layernorm_parameters_weight_
	        l_self_modules_layers_modules_25_modules_self_attn_modules_qkv_proj_parameters_weight_ = L_self_modules_layers_modules_25_modules_self_attn_modules_qkv_proj_parameters_weight_
	        l_self_modules_layers_modules_25_modules_self_attn_modules_o_proj_parameters_weight_ = L_self_modules_layers_modules_25_modules_self_attn_modules_o_proj_parameters_weight_
	        l_self_modules_layers_modules_25_modules_post_attention_layernorm_parameters_weight_ = L_self_modules_layers_modules_25_modules_post_attention_layernorm_parameters_weight_
	        l_self_modules_layers_modules_25_modules_mlp_modules_gate_up_proj_parameters_weight_ = L_self_modules_layers_modules_25_modules_mlp_modules_gate_up_proj_parameters_weight_
	        l_self_modules_layers_modules_25_modules_mlp_modules_down_proj_parameters_weight_ = L_self_modules_layers_modules_25_modules_mlp_modules_down_proj_parameters_weight_
	        l_self_modules_layers_modules_26_modules_input_layernorm_parameters_weight_ = L_self_modules_layers_modules_26_modules_input_layernorm_parameters_weight_
	        l_self_modules_layers_modules_26_modules_self_attn_modules_qkv_proj_parameters_weight_ = L_self_modules_layers_modules_26_modules_self_attn_modules_qkv_proj_parameters_weight_
	        l_self_modules_layers_modules_26_modules_self_attn_modules_o_proj_parameters_weight_ = L_self_modules_layers_modules_26_modules_self_attn_modules_o_proj_parameters_weight_
	        l_self_modules_layers_modules_26_modules_post_attention_layernorm_parameters_weight_ = L_self_modules_layers_modules_26_modules_post_attention_layernorm_parameters_weight_
	        l_self_modules_layers_modules_26_modules_mlp_modules_gate_up_proj_parameters_weight_ = L_self_modules_layers_modules_26_modules_mlp_modules_gate_up_proj_parameters_weight_
	        l_self_modules_layers_modules_26_modules_mlp_modules_down_proj_parameters_weight_ = L_self_modules_layers_modules_26_modules_mlp_modules_down_proj_parameters_weight_
	        l_self_modules_layers_modules_27_modules_input_layernorm_parameters_weight_ = L_self_modules_layers_modules_27_modules_input_layernorm_parameters_weight_
	        l_self_modules_layers_modules_27_modules_self_attn_modules_qkv_proj_parameters_weight_ = L_self_modules_layers_modules_27_modules_self_attn_modules_qkv_proj_parameters_weight_
	        l_self_modules_layers_modules_27_modules_self_attn_modules_o_proj_parameters_weight_ = L_self_modules_layers_modules_27_modules_self_attn_modules_o_proj_parameters_weight_
	        l_self_modules_layers_modules_27_modules_post_attention_layernorm_parameters_weight_ = L_self_modules_layers_modules_27_modules_post_attention_layernorm_parameters_weight_
	        l_self_modules_layers_modules_27_modules_mlp_modules_gate_up_proj_parameters_weight_ = L_self_modules_layers_modules_27_modules_mlp_modules_gate_up_proj_parameters_weight_
	        l_self_modules_layers_modules_27_modules_mlp_modules_down_proj_parameters_weight_ = L_self_modules_layers_modules_27_modules_mlp_modules_down_proj_parameters_weight_
	        l_self_modules_layers_modules_28_modules_input_layernorm_parameters_weight_ = L_self_modules_layers_modules_28_modules_input_layernorm_parameters_weight_
	        l_self_modules_layers_modules_28_modules_self_attn_modules_qkv_proj_parameters_weight_ = L_self_modules_layers_modules_28_modules_self_attn_modules_qkv_proj_parameters_weight_
	        l_self_modules_layers_modules_28_modules_self_attn_modules_o_proj_parameters_weight_ = L_self_modules_layers_modules_28_modules_self_attn_modules_o_proj_parameters_weight_
	        l_self_modules_layers_modules_28_modules_post_attention_layernorm_parameters_weight_ = L_self_modules_layers_modules_28_modules_post_attention_layernorm_parameters_weight_
	        l_self_modules_layers_modules_28_modules_mlp_modules_gate_up_proj_parameters_weight_ = L_self_modules_layers_modules_28_modules_mlp_modules_gate_up_proj_parameters_weight_
	        l_self_modules_layers_modules_28_modules_mlp_modules_down_proj_parameters_weight_ = L_self_modules_layers_modules_28_modules_mlp_modules_down_proj_parameters_weight_
	        l_self_modules_layers_modules_29_modules_input_layernorm_parameters_weight_ = L_self_modules_layers_modules_29_modules_input_layernorm_parameters_weight_
	        l_self_modules_layers_modules_29_modules_self_attn_modules_qkv_proj_parameters_weight_ = L_self_modules_layers_modules_29_modules_self_attn_modules_qkv_proj_parameters_weight_
	        l_self_modules_layers_modules_29_modules_self_attn_modules_o_proj_parameters_weight_ = L_self_modules_layers_modules_29_modules_self_attn_modules_o_proj_parameters_weight_
	        l_self_modules_layers_modules_29_modules_post_attention_layernorm_parameters_weight_ = L_self_modules_layers_modules_29_modules_post_attention_layernorm_parameters_weight_
	        l_self_modules_layers_modules_29_modules_mlp_modules_gate_up_proj_parameters_weight_ = L_self_modules_layers_modules_29_modules_mlp_modules_gate_up_proj_parameters_weight_
	        l_self_modules_layers_modules_29_modules_mlp_modules_down_proj_parameters_weight_ = L_self_modules_layers_modules_29_modules_mlp_modules_down_proj_parameters_weight_
	        l_self_modules_layers_modules_30_modules_input_layernorm_parameters_weight_ = L_self_modules_layers_modules_30_modules_input_layernorm_parameters_weight_
	        l_self_modules_layers_modules_30_modules_self_attn_modules_qkv_proj_parameters_weight_ = L_self_modules_layers_modules_30_modules_self_attn_modules_qkv_proj_parameters_weight_
	        l_self_modules_layers_modules_30_modules_self_attn_modules_o_proj_parameters_weight_ = L_self_modules_layers_modules_30_modules_self_attn_modules_o_proj_parameters_weight_
	        l_self_modules_layers_modules_30_modules_post_attention_layernorm_parameters_weight_ = L_self_modules_layers_modules_30_modules_post_attention_layernorm_parameters_weight_
	        l_self_modules_layers_modules_30_modules_mlp_modules_gate_up_proj_parameters_weight_ = L_self_modules_layers_modules_30_modules_mlp_modules_gate_up_proj_parameters_weight_
	        l_self_modules_layers_modules_30_modules_mlp_modules_down_proj_parameters_weight_ = L_self_modules_layers_modules_30_modules_mlp_modules_down_proj_parameters_weight_
	        l_self_modules_layers_modules_31_modules_input_layernorm_parameters_weight_ = L_self_modules_layers_modules_31_modules_input_layernorm_parameters_weight_
	        l_self_modules_layers_modules_31_modules_self_attn_modules_qkv_proj_parameters_weight_ = L_self_modules_layers_modules_31_modules_self_attn_modules_qkv_proj_parameters_weight_
	        l_self_modules_layers_modules_31_modules_self_attn_modules_o_proj_parameters_weight_ = L_self_modules_layers_modules_31_modules_self_attn_modules_o_proj_parameters_weight_
	        l_self_modules_layers_modules_31_modules_post_attention_layernorm_parameters_weight_ = L_self_modules_layers_modules_31_modules_post_attention_layernorm_parameters_weight_
	        l_self_modules_layers_modules_31_modules_mlp_modules_gate_up_proj_parameters_weight_ = L_self_modules_layers_modules_31_modules_mlp_modules_gate_up_proj_parameters_weight_
	        l_self_modules_layers_modules_31_modules_mlp_modules_down_proj_parameters_weight_ = L_self_modules_layers_modules_31_modules_mlp_modules_down_proj_parameters_weight_
	        l_self_modules_norm_parameters_weight_ = L_self_modules_norm_parameters_weight_
	        
	        # File: /data/users/angelayi/vllm/vllm/model_executor/layers/vocab_parallel_embedding.py:167 in get_masked_input_and_mask, code: org_vocab_mask = (input_ >= org_vocab_start_index) & (input_ < org_vocab_end_index)
	        ge: "b8[s72][1]cuda:0" = l_input_ids_ >= 0
	        lt: "b8[s72][1]cuda:0" = l_input_ids_ < 64128
	        org_vocab_mask: "b8[s72][1]cuda:0" = ge & lt;  ge = lt = None
	        
	        # File: /data/users/angelayi/vllm/vllm/model_executor/layers/vocab_parallel_embedding.py:168 in get_masked_input_and_mask, code: added_vocab_mask = (input_ >= added_vocab_start_index) & (
	        ge_1: "b8[s72][1]cuda:0" = l_input_ids_ >= 128256
	        
	        # File: /data/users/angelayi/vllm/vllm/model_executor/layers/vocab_parallel_embedding.py:169 in get_masked_input_and_mask, code: input_ < added_vocab_end_index
	        lt_1: "b8[s72][1]cuda:0" = l_input_ids_ < 128256
	        
	        # File: /data/users/angelayi/vllm/vllm/model_executor/layers/vocab_parallel_embedding.py:168 in get_masked_input_and_mask, code: added_vocab_mask = (input_ >= added_vocab_start_index) & (
	        added_vocab_mask: "b8[s72][1]cuda:0" = ge_1 & lt_1;  ge_1 = lt_1 = None
	        
	        # File: /data/users/angelayi/vllm/vllm/model_executor/layers/vocab_parallel_embedding.py:176 in get_masked_input_and_mask, code: valid_offset = (org_vocab_start_index * org_vocab_mask) + (
	        mul: "i64[s72][1]cuda:0" = 0 * org_vocab_mask
	        
	        # File: /data/users/angelayi/vllm/vllm/model_executor/layers/vocab_parallel_embedding.py:177 in get_masked_input_and_mask, code: added_offset * added_vocab_mask
	        mul_1: "i64[s72][1]cuda:0" = 64128 * added_vocab_mask
	        
	        # File: /data/users/angelayi/vllm/vllm/model_executor/layers/vocab_parallel_embedding.py:176 in get_masked_input_and_mask, code: valid_offset = (org_vocab_start_index * org_vocab_mask) + (
	        valid_offset: "i64[s72][1]cuda:0" = mul + mul_1;  mul = mul_1 = None
	        
	        # File: /data/users/angelayi/vllm/vllm/model_executor/layers/vocab_parallel_embedding.py:179 in get_masked_input_and_mask, code: vocab_mask = org_vocab_mask | added_vocab_mask
…
	        # File: /data/users/angelayi/vllm/vllm/attention/layer.py:350 in forward, code: return output.view(-1, hidden_size)
	        view: "bf16[s72, 2048]" = output_4.view(-1, 2048);  output_4 = None
	        
	        # File: /data/users/angelayi/vllm/vllm/model_executor/layers/utils.py:105 in default_unquantized_gemm, code: return torch.nn.functional.linear(x, weight, bias)
	        linear: "bf16[s72, 4096]" = torch._C._nn.linear(view, l_self_modules_layers_modules_0_modules_self_attn_modules_o_proj_parameters_weight_, None);  view = l_self_modules_layers_modules_0_modules_self_attn_modules_o_proj_parameters_weight_ = None
	        
	        # File: /data/users/angelayi/vllm/vllm/distributed/parallel_state.py:500 in all_reduce, code: return torch.ops.vllm.all_reduce(input_, group_name=self.unique_name)
	        all_reduce: "bf16[s72, 4096]" = torch.ops.vllm.all_reduce(linear, group_name = 'tp:0');  linear = None
	        
	        # File: /data/users/angelayi/vllm/vllm/model_executor/layers/layernorm.py:189 in forward_native, code: self.weight.data if self.has_weight else None,
	        _get_data_attr: "bf16[4096]" = torch._C._autograd._get_data_attr(l_self_modules_layers_modules_0_modules_post_attention_layernorm_parameters_weight_);  l_self_modules_layers_modules_0_modules_post_attention_layernorm_parameters_weight_ = None
	        
	        # File: /data/users/angelayi/vllm/vllm/model_executor/layers/layernorm.py:142 in forward_static, code: x = x.to(torch.float32)
	        to: "f32[s72, 4096]" = all_reduce.to(torch.float32);  all_reduce = None
	        
	        # File: /data/users/angelayi/vllm/vllm/model_executor/layers/layernorm.py:147 in forward_static, code: x = x + residual
	        add: "f32[s72, 4096]" = to + output;  to = output = None
	        
	        # File: /data/users/angelayi/vllm/vllm/model_executor/layers/layernorm.py:148 in forward_static, code: residual = x.to(orig_dtype)
	        to_1: "bf16[s72, 4096]" = add.to(torch.bfloat16)
	        
	        # File: /data/users/angelayi/vllm/vllm/model_executor/layers/layernorm.py:166 in forward_static, code: variance = x_var.pow(2).mean(dim=-1, keepdim=True)
	        pow_1: "f32[s72, 4096]" = add.pow(2)
	        mean: "f32[s72, 1]" = pow_1.mean(dim = -1, keepdim = True);  pow_1 = None
	        
	        # File: /data/users/angelayi/vllm/vllm/model_executor/layers/layernorm.py:168 in forward_static, code: x = x * torch.rsqrt(variance + variance_epsilon)
	        add_1: "f32[s72, 1]" = mean + 1e-05;  mean = None
	        rsqrt: "f32[s72, 1]" = torch.rsqrt(add_1);  add_1 = None
	        mul: "f32[s72, 4096]" = add * rsqrt;  add = rsqrt = None
	        
	        # File: /data/users/angelayi/vllm/vllm/model_executor/layers/layernorm.py:169 in forward_static, code: x = x.to(orig_dtype)
	        to_2: "bf16[s72, 4096]" = mul.to(torch.bfloat16);  mul = None
	        
	        # File: /data/users/angelayi/vllm/vllm/model_executor/layers/layernorm.py:171 in forward_static, code: x = x * weight
	        mul_1: "bf16[s72, 4096]" = to_2 * _get_data_attr;  to_2 = _get_data_attr = None
	        
	        # File: /data/users/angelayi/vllm/vllm/model_executor/layers/utils.py:105 in default_unquantized_gemm, code: return torch.nn.functional.linear(x, weight, bias)
	        linear_1: "bf16[s72, 14336]" = torch._C._nn.linear(mul_1, l_self_modules_layers_modules_0_modules_mlp_modules_gate_up_proj_parameters_weight_, None);  mul_1 = l_self_modules_layers_modules_0_modules_mlp_modules_gate_up_proj_parameters_weight_ = None
	        
	        # File: /data/users/angelayi/vllm/vllm/model_executor/layers/activation.py:87 in forward_native, code: return F.silu(x[..., :d]) * x[..., d:]
	        getitem: "bf16[s72, 7168]" = linear_1[(Ellipsis, slice(None, 7168, None))]
	        silu: "bf16[s72, 7168]" = torch.nn.functional.silu(getitem);  getitem = None
	        getitem_1: "bf16[s72, 7168]" = linear_1[(Ellipsis, slice(7168, None, None))];  linear_1 = None
	        mul_2: "bf16[s72, 7168]" = silu * getitem_1;  silu = getitem_1 = None
	        
	        # File: /data/users/angelayi/vllm/vllm/model_executor/layers/utils.py:105 in default_unquantized_gemm, code: return torch.nn.functional.linear(x, weight, bias)
	        linear_2: "bf16[s72, 4096]" = torch._C._nn.linear(mul_2, l_self_modules_layers_modules_0_modules_mlp_modules_down_proj_parameters_weight_, None);  mul_2 = l_self_modules_layers_modules_0_modules_mlp_modules_down_proj_parameters_weight_ = None
	        
	        # File: /data/users/angelayi/vllm/vllm/distributed/parallel_state.py:500 in all_reduce, code: return torch.ops.vllm.all_reduce(input_, group_name=self.unique_name)
	        all_reduce_1: "bf16[s72, 4096]" = torch.ops.vllm.all_reduce(linear_2, group_name = 'tp:0');  linear_2 = None
	        
	        # File: /data/users/angelayi/vllm/vllm/model_executor/layers/layernorm.py:189 in forward_native, code: self.weight.data if self.has_weight else None,
	        _get_data_attr_1: "bf16[4096]" = torch._C._autograd._get_data_attr(l_self_modules_layers_modules_1_modules_input_layernorm_parameters_weight_);  l_self_modules_layers_modules_1_modules_input_layernorm_parameters_weight_ = None
	        
	        # File: /data/users/angelayi/vllm/vllm/model_executor/layers/layernorm.py:142 in forward_static, code: x = x.to(torch.float32)
	        to_3: "f32[s72, 4096]" = all_reduce_1.to(torch.float32);  all_reduce_1 = None
	        
	        # File: /data/users/angelayi/vllm/vllm/model_executor/layers/layernorm.py:147 in forward_static, code: x = x + residual
	        add_2: "f32[s72, 4096]" = to_3 + to_1;  to_3 = to_1 = None
	        
	        # File: /data/users/angelayi/vllm/vllm/model_executor/layers/layernorm.py:148 in forward_static, code: residual = x.to(orig_dtype)
	        to_4: "bf16[s72, 4096]" = add_2.to(torch.bfloat16)
	        
	        # File: /data/users/angelayi/vllm/vllm/model_executor/layers/layernorm.py:166 in forward_static, code: variance = x_var.pow(2).mean(dim=-1, keepdim=True)
	        pow_2: "f32[s72, 4096]" = add_2.pow(2)
	        mean_1: "f32[s72, 1]" = pow_2.mean(dim = -1, keepdim = True);  pow_2 = None
	        
	        # File: /data/users/angelayi/vllm/vllm/model_executor/layers/layernorm.py:168 in forward_static, code: x = x * torch.rsqrt(variance + variance_epsilon)
	        add_3: "f32[s72, 1]" = mean_1 + 1e-05;  mean_1 = None
	        rsqrt_1: "f32[s72, 1]" = torch.rsqrt(add_3);  add_3 = None
	        mul_3: "f32[s72, 4096]" = add_2 * rsqrt_1;  add_2 = rsqrt_1 = None
	        
	        # File: /data/users/angelayi/vllm/vllm/model_executor/layers/layernorm.py:169 in forward_static, code: x = x.to(orig_dtype)
	        to_5: "bf16[s72, 4096]" = mul_3.to(torch.bfloat16);  mul_3 = None
	        
	        # File: /data/users/angelayi/vllm/vllm/model_executor/layers/layernorm.py:171 in forward_static, code: x = x * weight
	        mul_4: "bf16[s72, 4096]" = to_5 * _get_data_attr_1;  to_5 = _get_data_attr_1 = None
	        
	        # File: /data/users/angelayi/vllm/vllm/model_executor/layers/utils.py:105 in default_unquantized_gemm, code: return torch.nn.functional.linear(x, weight, bias)
	        linear_3: "bf16[s72, 3072]" = torch._C._nn.linear(mul_4, l_self_modules_layers_modules_1_modules_self_attn_modules_qkv_proj_parameters_weight_, None);  mul_4 = l_self_modules_layers_modules_1_modules_self_attn_modules_qkv_proj_parameters_weight_ = None
	        
	        # File: /data/users/angelayi/vllm/vllm/model_executor/models/llama.py:241 in forward, code: q, k, v = qkv.split([self.q_size, self.kv_size, self.kv_size], dim=-1)
	        split = linear_3.split([2048, 512, 512], dim = -1);  linear_3 = None
	        getitem_2: "bf16[s72, 2048]" = split[0]
	        getitem_3: "bf16[s72, 512]" = split[1]
	        getitem_4: "bf16[s72, 512]" = split[2];  split = None
	        
	        # File: /data/users/angelayi/vllm/vllm/model_executor/layers/rotary_embedding/base.py:121 in forward_static, code: positions = positions.flatten()
	        flatten: "i64[s72]" = l_positions_.flatten();  l_positions_ = None
	        
	        # File: /data/users/angelayi/vllm/vllm/model_executor/layers/rotary_embedding/base.py:123 in forward_static, code: cos_sin = cos_sin_cache.index_select(0, positions)
	        index_select: "bf16[s72, 128]" = l_self_modules_layers_modules_0_modules_self_attn_modules_rotary_emb_buffers_cos_sin_cache_.index_select(0, flatten);  l_self_modules_layers_modules_0_modules_self_attn_modules_rotary_emb_buffers_cos_sin_cache_ = flatten = None
	        
	        # File: /data/users/angelayi/vllm/vllm/model_executor/layers/rotary_embedding/base.py:124 in forward_static, code: cos, sin = cos_sin.chunk(2, dim=-1)
	        chunk = index_select.chunk(2, dim = -1);  index_select = None
	        getitem_5: "bf16[s72, 64]" = chunk[0]
	        getitem_6: "bf16[s72, 64]" = chunk[1];  chunk = None
	        
	        # File: /data/users/angelayi/vllm/vllm/model_executor/layers/rotary_embedding/base.py:126 in forward_static, code: query_shape = query.shape
	        size = getitem_2.size()
	        
	        # File: /data/users/angelayi/vllm/vllm/model_executor/layers/rotary_embedding/base.py:127 in forward_static, code: query = query.view(num_tokens, -1, head_size)
	        view_1: "bf16[s72, 16, 128]" = getitem_2.view(s72, -1, 128);  getitem_2 = None
	        
	        # File: /data/users/angelayi/vllm/vllm/model_executor/layers/rotary_embedding/base.py:128 in forward_static, code: query_rot = query[..., :rotary_dim]
	        getitem_7: "bf16[s72, 16, 128]" = view_1[(Ellipsis, slice(None, 128, None))]
	        
	        # File: /data/users/angelayi/vllm/vllm/model_executor/layers/rotary_embedding/base.py:129 in forward_static, code: query_pass = query[..., rotary_dim:]
	        getitem_8: "bf16[s72, 16, 0]" = view_1[(Ellipsis, slice(128, None, None))];  view_1 = None
	        
	        # File: /data/users/angelayi/vllm/vllm/model_executor/layers/rotary_embedding/common.py:160 in forward_static, code: cos = cos.unsqueeze(-2).to(x.dtype)
	        unsqueeze: "bf16[s72, 1, 64]" = getitem_5.unsqueeze(-2)
	        to_6: "bf16[s72, 1, 64]" = unsqueeze.to(torch.bfloat16);  unsqueeze = None
	        
	        # File: /data/users/angelayi/vllm/vllm/model_executor/layers/rotary_embedding/common.py:161 in forward_static, code: sin = sin.unsqueeze(-2).to(x.dtype)
	        unsqueeze_1: "bf16[s72, 1, 64]" = getitem_6.unsqueeze(-2)
	        to_7: "bf16[s72, 1, 64]" = unsqueeze_1.to(torch.bfloat16);  unsqueeze_1 = None
	        
	        # File: /data/users/angelayi/vllm/vllm/model_executor/layers/rotary_embedding/common.py:164 in forward_static, code: x1, x2 = torch.chunk(x, 2, dim=-1)
	        chunk_1 = torch.chunk(getitem_7, 2, dim = -1);  getitem_7 = None
	        getitem_9: "bf16[s72, 16, 64]" = chunk_1[0]
	        getitem_10: "bf16[s72, 16, 64]" = chunk_1[1];  chunk_1 = None
	        
	        # File: /data/users/angelayi/vllm/vllm/model_executor/layers/rotary_embedding/common.py:169 in forward_static, code: o1 = x1 * cos - x2 * sin
	        mul_5: "bf16[s72, 16, 64]" = getitem_9 * to_6
	        mul_6: "bf16[s72, 16, 64]" = getitem_10 * to_7
	        sub: "bf16[s72, 16, 64]" = mul_5 - mul_6;  mul_5 = mul_6 = None
	        
	        # File: /data/users/angelayi/vllm/vllm/model_executor/layers/rotary_embedding/common.py:170 in forward_static, code: o2 = x2 * cos + x1 * sin
	        mul_7: "bf16[s72, 16, 64]" = getitem_10 * to_6;  getitem_10 = to_6 = None
	        mul_8: "bf16[s72, 16, 64]" = getitem_9 * to_7;  getitem_9 = to_7 = None
	        add_4: "bf16[s72, 16, 64]" = mul_7 + mul_8;  mul_7 = mul_8 = None
	        
	        # File: /data/users/angelayi/vllm/vllm/model_executor/layers/rotary_embedding/common.py:173 in forward_static, code: output = torch.cat((o1, o2), dim=-1)
	        cat: "bf16[s72, 16, 128]" = torch.cat((sub, add_4), dim = -1);  sub = add_4 = None
	        
	        # File: /data/users/angelayi/vllm/vllm/model_executor/layers/rotary_embedding/base.py:136 in forward_static, code: query = torch.cat((query_rot, query_pass), dim=-1).reshape(query_shape)
	        cat_1: "bf16[s72, 16, 128]" = torch.cat((cat, getitem_8), dim = -1);  cat = getitem_8 = None
	        reshape: "bf16[s72, 2048]" = cat_1.reshape(size);  cat_1 = size = None
	        
	        # File: /data/users/angelayi/vllm/vllm/model_executor/layers/rotary_embedding/base.py:140 in forward_static, code: key_shape = key.shape
	        size_1 = getitem_3.size()
	        
	        # File: /data/users/angelayi/vllm/vllm/model_executor/layers/rotary_embedding/base.py:141 in forward_static, code: key = key.view(num_tokens, -1, head_size)
	        view_2: "bf16[s72, 4, 128]" = getitem_3.view(s72, -1, 128);  getitem_3 = s72 = None
	        
	        # File: /data/users/angelayi/vllm/vllm/model_executor/layers/rotary_embedding/base.py:142 in forward_static, code: key_rot = key[..., :rotary_dim]
	        getitem_11: "bf16[s72, 4, 128]" = view_2[(Ellipsis, slice(None, 128, None))]
	        
	        # File: /data/users/angelayi/vllm/vllm/model_executor/layers/rotary_embedding/base.py:143 in forward_static, code: key_pass = key[..., rotary_dim:]
	        getitem_12: "bf16[s72, 4, 0]" = view_2[(Ellipsis, slice(128, None, None))];  view_2 = None
	        
	        # File: /data/users/angelayi/vllm/vllm/model_executor/layers/rotary_embedding/common.py:160 in forward_static, code: cos = cos.unsqueeze(-2).to(x.dtype)
	        unsqueeze_2: "bf16[s72, 1, 64]" = getitem_5.unsqueeze(-2);  getitem_5 = None
	        to_8: "bf16[s72, 1, 64]" = unsqueeze_2.to(torch.bfloat16);  unsqueeze_2 = None
	        
	        # File: /data/users/angelayi/vllm/vllm/model_executor/layers/rotary_embedding/common.py:161 in forward_static, code: sin = sin.unsqueeze(-2).to(x.dtype)
	        unsqueeze_3: "bf16[s72, 1, 64]" = getitem_6.unsqueeze(-2);  getitem_6 = None
	        to_9: "bf16[s72, 1, 64]" = unsqueeze_3.to(torch.bfloat16);  unsqueeze_3 = None
	        
	        # File: /data/users/angelayi/vllm/vllm/model_executor/layers/rotary_embedding/common.py:164 in forward_static, code: x1, x2 = torch.chunk(x, 2, dim=-1)
	        chunk_2 = torch.chunk(getitem_11, 2, dim = -1);  getitem_11 = None
	        getitem_13: "bf16[s72, 4, 64]" = chunk_2[0]
	        getitem_14: "bf16[s72, 4, 64]" = chunk_2[1];  chunk_2 = None
	        
	        # File: /data/users/angelayi/vllm/vllm/model_executor/layers/rotary_embedding/common.py:169 in forward_static, code: o1 = x1 * cos - x2 * sin
	        mul_9: "bf16[s72, 4, 64]" = getitem_13 * to_8
	        mul_10: "bf16[s72, 4, 64]" = getitem_14 * to_9
	        sub_1: "bf16[s72, 4, 64]" = mul_9 - mul_10;  mul_9 = mul_10 = None
	        
	        # File: /data/users/angelayi/vllm/vllm/model_executor/layers/rotary_embedding/common.py:170 in forward_static, code: o2 = x2 * cos + x1 * sin
	        mul_11: "bf16[s72, 4, 64]" = getitem_14 * to_8;  getitem_14 = to_8 = None
	        mul_12: "bf16[s72, 4, 64]" = getitem_13 * to_9;  getitem_13 = to_9 = None
	        add_5: "bf16[s72, 4, 64]" = mul_11 + mul_12;  mul_11 = mul_12 = None
	        
	        # File: /data/users/angelayi/vllm/vllm/model_executor/layers/rotary_embedding/common.py:173 in forward_static, code: output = torch.cat((o1, o2), dim=-1)
	        cat_2: "bf16[s72, 4, 128]" = torch.cat((sub_1, add_5), dim = -1);  sub_1 = add_5 = None
	        
	        # File: /data/users/angelayi/vllm/vllm/model_executor/layers/rotary_embedding/base.py:150 in forward_static, code: key = torch.cat((key_rot, key_pass), dim=-1).reshape(key_shape)
	        cat_3: "bf16[s72, 4, 128]" = torch.cat((cat_2, getitem_12), dim = -1);  cat_2 = getitem_12 = None
	        reshape_1: "bf16[s72, 512]" = cat_3.reshape(size_1);  cat_3 = size_1 = None
	        
	        # File: /data/users/angelayi/vllm/vllm/attention/layer.py:325 in forward, code: output_shape = output_shape if output_shape is not None else query.shape
	        size_2 = reshape.size()
	        
	        # File: /data/users/angelayi/vllm/vllm/attention/layer.py:326 in forward, code: output = torch.empty(output_shape, dtype=output_dtype, device=query.device)
	        empty: "bf16[s72, 2048]" = torch.empty(size_2, dtype = torch.bfloat16, device = device(type='cuda', index=0));  size_2 = None
	        
	        # File: /data/users/angelayi/vllm/vllm/attention/layer.py:331 in forward, code: query = query.view(-1, self.num_heads, self.head_size)
	        view_3: "bf16[s72, 16, 128]" = reshape.view(-1, 16, 128);  reshape = None
	        
	        # File: /data/users/angelayi/vllm/vllm/attention/layer.py:332 in forward, code: output = output.view(-1, self.num_heads, self.head_size)
	        view_4: "bf16[s72, 16, 128]" = empty.view(-1, 16, 128);  empty = None
	        
	        # File: /data/users/angelayi/vllm/vllm/attention/layer.py:334 in forward, code: key = key.view(-1, self.num_kv_heads, self.head_size)
	        view_5: "bf16[s72, 4, 128]" = reshape_1.view(-1, 4, 128);  reshape_1 = None
	        
	        # File: /data/users/angelayi/vllm/vllm/attention/layer.py:336 in forward, code: value = value.view(-1, self.num_kv_heads, self.head_size)
	        view_6: "bf16[s72, 4, 128]" = getitem_4.view(-1, 4, 128);  getitem_4 = None
	        return (view_3, view_5, view_6, view_4, to_4)
	        
V0127 17:17:49.085000 1175001 site-packages/torch/_inductor/compile_fx.py:1335] {"artifact": {"name": "inductor_post_grad_graph", "encoding": "string"}, "rank": 0, "stack": [{"line": 1, "name": "<module>", "filename": 1, "loc": ""}, {"line": 122, "name": "spawn_main", "filename": 2, "loc": "exitcode = _main(fd, parent_sentinel)"}, {"line": 135, "name": "_main", "filename": 2, "loc": "return self._bootstrap(parent_sentinel)"}, {"line": 314, "name": "_bootstrap", "filename": 3, "loc": "self.run()"}, {"line": 108, "name": "run", "filename": 3, "loc": "self._target(*self._args, **self._kwargs)"}, {"line": 742, "name": "worker_main", "filename": 4, "loc": "worker.worker_busy_loop(cancel=shutdown_event)"}, {"line": 819, "name": "worker_busy_loop", "filename": 4, "loc": "output = func(*args, **kwargs)"}, {"line": 124, "name": "decorate_context", "filename": 5, "loc": "return func(*args, **kwargs)"}, {"line": 340, "name": "determine_available_memory", "filename": 6, "loc": "self.model_runner.profile_run()"}, {"line": 4516, "name": "profile_run", "filename": 7, "loc": "hidden_states, last_hidden_states = self._dummy_run("}, {"line": 124, "name": "decorate_context", "filename": 5, "loc": "return func(*args, **kwargs)"}, {"line": 4217, "name": "_dummy_run", "filename": 7, "loc": "outputs = self.model("}, {"line": 220, "name": "__call__", "filename": 8, "loc": "return self.runnable(*args, **kwargs)"}, {"line": 1776, "name": "_wrapped_call_impl", "filename": 9, "loc": "return self._call_impl(*args, **kwargs)"}, {"line": 1787, "name": "_call_impl", "filename": 9, "loc": "return forward_call(*args, **kwargs)"}, {"line": 623, "name": "forward", "filename": 10, "loc": "model_output = self.model("}, {"line": 526, "name": "__call__", "filename": 11, "loc": "output = TorchCompileWithNoGuardsWrapper.__call__(self, *args, **kwargs)"}, {"line": 218, "name": "__call__", "filename": 12, "loc": "return self._call_with_optional_nvtx_range("}, {"line": 109, "name": "_call_with_optional_nvtx_range", "filename": 12, "loc": "return callable_fn(*args, **kwargs)"}, {"line": 953, "name": "compile_wrapper", "filename": 16, "loc": "return fn(*args, **kwargs)"}, {"line": 412, "name": "forward", "filename": 10, "loc": "def forward("}, {"line": 1181, "name": "_fn", "filename": 16, "loc": "return fn(*args, **kwargs)"}, {"line": 54, "name": "__call__", "filename": 44, "loc": "return self.optimized_call(*args, **kwargs)"}, {"line": 936, "name": "call_wrapped", "filename": 45, "loc": "return self._wrapped_call(self, *args, **kwargs)"}, {"line": 442, "name": "__call__", "filename": 45, "loc": "return super(self.cls, obj).__call__(*args, **kwargs)  # type: ignore[misc]"}, {"line": 1776, "name": "_wrapped_call_impl", "filename": 9, "loc": "return self._call_impl(*args, **kwargs)"}, {"line": 1787, "name": "_call_impl", "filename": 9, "loc": "return forward_call(*args, **kwargs)"}, {"line": 209, "name": "forward", "filename": 46, "loc": "submod_2 = self.submod_2(getitem_3, s72, l_self_modules_layers_modules_0_modules_self_attn_modules_o_proj_parameters_weight_, l_self_modules_layers_modules_0_modules_post_attention_layernorm_parameters_weight_, getitem_4, l_self_modules_layers_modules_0_modules_mlp_modules_gate_up_proj_parameters_weight_, l_self_modules_layers_modules_0_modules_mlp_modules_down_proj_parameters_weight_, l_self_modules_layers_modules_1_modules_input_layernorm_parameters_weight_, l_self_modules_layers_modules_1_modules_self_attn_modules_qkv_proj_parameters_weight_, l_positions_, l_self_modules_layers_modules_0_modules_self_attn_modules_rotary_emb_buffers_cos_sin_cache_);  getitem_3 = l_self_modules_layers_modules_0_modules_self_attn_modules_o_proj_parameters_weight_ = l_self_modules_layers_modules_0_modules_post_attention_layernorm_parameters_weight_ = getitem_4 = l_self_modules_layers_modules_0_modules_mlp_modules_gate_up_proj_parameters_weight_ = l_self_modules_layers_modules_0_modules_mlp_modules_down_proj_parameters_weight_ = l_self_modules_layers_modules_1_modules_input_layernorm_parameters_weight_ = l_self_modules_layers_modules_1_modules_self_attn_modules_qkv_proj_parameters_weight_ = None"}, {"line": 220, "name": "__call__", "filename": 8, "loc": "return self.runnable(*args, **kwargs)"}, {"line": 222, "name": "__call__", "filename": 47, "loc": "self._maybe_compile_for_range_entry(range_entry, args)"}, {"line": 189, "name": "_maybe_compile_for_range_entry", "filename": 47, "loc": "range_entry.runnable = self.vllm_backend.compiler_manager.compile("}, {"line": 245, "name": "compile", "filename": 43, "loc": "compiled_graph, handle = self.compiler.compile("}, {"line": 233, "name": "compile", "filename": 48, "loc": "compiled_graph = standalone_compile("}, {"line": 445, "name": "standalone_compile", "filename": 49, "loc": "return standalone_compile("}, {"line": 423, "name": "standalone_compile", "filename": 50, "loc": "compiled_fn = compile_fx("}, {"line": 2486, "name": "compile_fx", "filename": 51, "loc": "return compile_fx("}, {"line": 2537, "name": "compile_fx", "filename": 51, "loc": "return _maybe_wrap_and_compile_fx_main("}, {"line": 2614, "name": "_maybe_wrap_and_compile_fx_main", "filename": 51, "loc": "return _compile_fx_main("}, {"line": 2809, "name": "_compile_fx_main", "filename": 51, "loc": "return aot_autograd("}, {"line": 123, "name": "__call__", "filename": 52, "loc": "cg = aot_module_simplified(gm, example_inputs, **self.kwargs)"}, {"line": 1115, "name": "aot_module_simplified", "filename": 53, "loc": "compiled_fn, _ = aot_stage2_compile("}, {"line": 357, "name": "aot_stage2_compile", "filename": 55, "loc": "return aot_stage2_inference(aot_state, aot_graph_capture)"}, {"line": 431, "name": "aot_stage2_inference", "filename": 55, "loc": "compiled_fw = _aot_stage2b_inference_compile("}, {"line": 400, "name": "_aot_stage2b_inference_compile", "filename": 55, "loc": "return _aot_stage2b_compile_forward_or_inference("}, {"line": 2300, "name": "_aot_stage2b_compile_forward_or_inference", "filename": 55, "loc": "compiled_fw_func = compiler(fw_module, adjusted_flat_args)"}, {"line": 1249, "name": "__call__", "filename": 57, "loc": "return self.compiler_fn(gm, example_inputs)"}, {"line": 2678, "name": "fw_compiler_base", "filename": 51, "loc": "return compile_fx_forward("}, {"line": 2350, "name": "compile_fx_forward", "filename": 51, "loc": "return inner_compile("}, {"line": 81, "name": "inner", "filename": 58, "loc": "return func(*args, **kwds)"}, {"line": 806, "name": "compile_fx_inner", "filename": 51, "loc": "return wrap_compiler_debug(_compile_fx_inner, compiler_name=\"inductor\")("}, {"line": 146, "name": "debug_wrapper", "filename": 59, "loc": "inner_compiled_fn = compiler_fn(gm, example_inputs)"}, {"line": 1003, "name": "_compile_fx_inner", "filename": 51, "loc": "mb_compiled_graph = fx_codegen_and_compile("}, {"line": 1766, "name": "fx_codegen_and_compile", "filename": 51, "loc": "return scheme.codegen_and_compile(gm, example_inputs, inputs_to_check, graph_kwargs)"}, {"line": 1335, "name": "codegen_and_compile", "filename": 51, "loc": "trace_structured("}], "has_payload": "b9c8f0218ebdc41027e665ef6962619b"}
	class <lambda>(torch.nn.Module):
	    def forward(self, arg0_1: "bf16[s72, 16, 128][2048, 128, 1]cuda:0", arg1_1: "Sym(s72)", arg2_1: "bf16[4096, 2048][2048, 1]cuda:0", arg3_1: "bf16[4096][1]cuda:0", arg4_1: "bf16[s72, 4096][4096, 1]cuda:0", arg5_1: "bf16[14336, 4096][4096, 1]cuda:0", arg6_1: "bf16[4096, 7168][7168, 1]cuda:0", arg7_1: "bf16[4096][1]cuda:0", arg8_1: "bf16[3072, 4096][4096, 1]cuda:0", arg9_1: "i64[s72][1]cuda:0", arg10_1: "bf16[131072, 128][128, 1]cuda:0"):
	        # File: /data/users/angelayi/vllm/vllm/attention/layer.py:350 in forward, code: return output.view(-1, hidden_size)
	        view: "bf16[s72, 2048][2048, 1]cuda:0" = torch.ops.aten.reshape.default(arg0_1, [-1, 2048]);  arg0_1 = None
	        
	        # File: /data/users/angelayi/vllm/vllm/model_executor/layers/utils.py:105 in default_unquantized_gemm, code: return torch.nn.functional.linear(x, weight, bias)
	        permute: "bf16[2048, 4096][1, 2048]cuda:0" = torch.ops.aten.permute.default(arg2_1, [1, 0]);  arg2_1 = None
	        mm: "bf16[s72, 4096][4096, 1]cuda:0" = torch.ops.aten.mm.default(view, permute);  view = permute = None
	        
	        # File: /data/users/angelayi/vllm/vllm/distributed/parallel_state.py:500 in all_reduce, code: return torch.ops.vllm.all_reduce(input_, group_name=self.unique_name)
	        all_reduce: "bf16[s72, 4096][4096, 1]cuda:0" = torch.ops.vllm.all_reduce.default(mm, 'tp:0');  mm = None
	        
	        # File: /data/users/angelayi/vllm/vllm/model_executor/layers/layernorm.py:142 in forward_static, code: x = x.to(torch.float32)
	        convert_element_type_2: "f32[s72, 4096][4096, 1]cuda:0" = torch.ops.prims.convert_element_type.default(all_reduce, torch.float32);  all_reduce = None
	        
	        # File: /data/users/angelayi/vllm/vllm/model_executor/layers/layernorm.py:147 in forward_static, code: x = x + residual
	        add_12: "f32[s72, 4096][4096, 1]cuda:0" = torch.ops.aten.add.Tensor(convert_element_type_2, arg4_1);  convert_element_type_2 = arg4_1 = None
	        
	        # File: /data/users/angelayi/vllm/vllm/model_executor/layers/layernorm.py:166 in forward_static, code: variance = x_var.pow(2).mean(dim=-1, keepdim=True)
	        pow_1: "f32[s72, 4096][4096, 1]cuda:0" = torch.ops.aten.pow.Tensor_Scalar(add_12, 2)
	        mean: "f32[s72, 1][1, 1]cuda:0" = torch.ops.aten.mean.dim(pow_1, [-1], True);  pow_1 = None
	        
	        # File: /data/users/angelayi/vllm/vllm/model_executor/layers/layernorm.py:168 in forward_static, code: x = x * torch.rsqrt(variance + variance_epsilon)
	        add_25: "f32[s72, 1][1, 1]cuda:0" = torch.ops.aten.add.Tensor(mean, 1e-05);  mean = None
	        rsqrt: "f32[s72, 1][1, 1]cuda:0" = torch.ops.aten.rsqrt.default(add_25);  add_25 = None
	        mul_17: "f32[s72, 4096][4096, 1]cuda:0" = torch.ops.aten.mul.Tensor(add_12, rsqrt);  rsqrt = None
	        
	        # File: /data/users/angelayi/vllm/vllm/model_executor/layers/layernorm.py:169 in forward_static, code: x = x.to(orig_dtype)
	        convert_element_type_4: "bf16[s72, 4096][4096, 1]cuda:0" = torch.ops.prims.convert_element_type.default(mul_17, torch.bfloat16);  mul_17 = None
	        
	        # File: /data/users/angelayi/vllm/vllm/model_executor/layers/layernorm.py:171 in forward_static, code: x = x * weight
	        mul_22: "bf16[s72, 4096][4096, 1]cuda:0" = torch.ops.aten.mul.Tensor(convert_element_type_4, arg3_1);  convert_element_type_4 = arg3_1 = None
	        
	        # File: /data/users/angelayi/vllm/vllm/model_executor/layers/utils.py:105 in default_unquantized_gemm, code: return torch.nn.functional.linear(x, weight, bias)
	        permute_1: "bf16[4096, 14336][1, 4096]cuda:0" = torch.ops.aten.permute.default(arg5_1, [1, 0]);  arg5_1 = None
	        mm_1: "bf16[s72, 14336][14336, 1]cuda:0" = torch.ops.aten.mm.default(mul_22, permute_1);  mul_22 = permute_1 = None
	        
	        # File: /data/users/angelayi/vllm/vllm/model_executor/layers/activation.py:87 in forward_native, code: return F.silu(x[..., :d]) * x[..., d:]
	        slice_1: "bf16[s72, 7168][14336, 1]cuda:0" = torch.ops.aten.slice.Tensor(mm_1, 1, 0, 7168)
	        convert_element_type_7: "f32[s72, 7168][7168, 1]cuda:0" = torch.ops.prims.convert_element_type.default(slice_1, torch.float32);  slice_1 = None
	        sigmoid: "f32[s72, 7168][7168, 1]cuda:0" = torch.ops.aten.sigmoid.default(convert_element_type_7)
	        mul_29: "f32[s72, 7168][7168, 1]cuda:0" = torch.ops.aten.mul.Tensor(convert_element_type_7, sigmoid);  convert_element_type_7 = sigmoid = None
	        convert_element_type_8: "bf16[s72, 7168][7168, 1]cuda:0" = torch.ops.prims.convert_element_type.default(mul_29, torch.bfloat16);  mul_29 = None
	        slice_2: "bf16[s72, 7168][14336, 1]cuda:0" = torch.ops.aten.slice.Tensor(mm_1, 1, 7168, 9223372036854775807);  mm_1 = None
	        mul_34: "bf16[s72, 7168][7168, 1]cuda:0" = torch.ops.aten.mul.Tensor(convert_element_type_8, slice_2);  convert_element_type_8 = slice_2 = None
	        
	        # File: /data/users/angelayi/vllm/vllm/model_executor/layers/utils.py:105 in default_unquantized_gemm, code: return torch.nn.functional.linear(x, weight, bias)
	        permute_2: "bf16[7168, 4096][1, 7168]cuda:0" = torch.ops.aten.permute.default(arg6_1, [1, 0]);  arg6_1 = None
	        mm_2: "bf16[s72, 4096][4096, 1]cuda:0" = torch.ops.aten.mm.default(mul_34, permute_2);  mul_34 = permute_2 = None
	        
	        # File: /data/users/angelayi/vllm/vllm/distributed/parallel_state.py:500 in all_reduce, code: return torch.ops.vllm.all_reduce(input_, group_name=self.unique_name)
	        all_reduce_1: "bf16[s72, 4096][4096, 1]cuda:0" = torch.ops.vllm.all_reduce.default(mm_2, 'tp:0');  mm_2 = None
	        
	        # File: /data/users/angelayi/vllm/vllm/model_executor/layers/layernorm.py:142 in forward_static, code: x = x.to(torch.float32)
	        convert_element_type_11: "f32[s72, 4096][4096, 1]cuda:0" = torch.ops.prims.convert_element_type.default(all_reduce_1, torch.float32);  all_reduce_1 = None
	        
	        # File: /data/users/angelayi/vllm/vllm/model_executor/layers/layernorm.py:148 in forward_static, code: residual = x.to(orig_dtype)
	        convert_element_type_3: "bf16[s72, 4096][4096, 1]cuda:0" = torch.ops.prims.convert_element_type.default(add_12, torch.bfloat16);  add_12 = None
	        
	        # File: /data/users/angelayi/vllm/vllm/model_executor/layers/layernorm.py:147 in forward_static, code: x = x + residual
	        add_65: "f32[s72, 4096][4096, 1]cuda:0" = torch.ops.aten.add.Tensor(convert_element_type_11, convert_element_type_3);  convert_element_type_11 = convert_element_type_3 = None
	        
	        # File: /data/users/angelayi/vllm/vllm/model_executor/layers/layernorm.py:166 in forward_static, code: variance = x_var.pow(2).mean(dim=-1, keepdim=True)
	        pow_2: "f32[s72, 4096][4096, 1]cuda:0" = torch.ops.aten.pow.Tensor_Scalar(add_65, 2)
	        mean_1: "f32[s72, 1][1, 1]cuda:0" = torch.ops.aten.mean.dim(pow_2, [-1], True);  pow_2 = None
	        
	        # File: /data/users/angelayi/vllm/vllm/model_executor/layers/layernorm.py:168 in forward_static, code: x = x * torch.rsqrt(variance + variance_epsilon)
	        add_78: "f32[s72, 1][1, 1]cuda:0" = torch.ops.aten.add.Tensor(mean_1, 1e-05);  mean_1 = None
	        rsqrt_1: "f32[s72, 1][1, 1]cuda:0" = torch.ops.aten.rsqrt.default(add_78);  add_78 = None
	        mul_52: "f32[s72, 4096][4096, 1]cuda:0" = torch.ops.aten.mul.Tensor(add_65, rsqrt_1);  rsqrt_1 = None
	        
	        # File: /data/users/angelayi/vllm/vllm/model_executor/layers/layernorm.py:169 in forward_static, code: x = x.to(orig_dtype)
	        convert_element_type_13: "bf16[s72, 4096][4096, 1]cuda:0" = torch.ops.prims.convert_element_type.default(mul_52, torch.bfloat16);  mul_52 = None
	        
	        # File: /data/users/angelayi/vllm/vllm/model_executor/layers/layernorm.py:171 in forward_static, code: x = x * weight
	        mul_57: "bf16[s72, 4096][4096, 1]cuda:0" = torch.ops.aten.mul.Tensor(convert_element_type_13, arg7_1);  convert_element_type_13 = arg7_1 = None
	        
	        # File: /data/users/angelayi/vllm/vllm/model_executor/layers/utils.py:105 in default_unquantized_gemm, code: return torch.nn.functional.linear(x, weight, bias)
	        permute_3: "bf16[4096, 3072][1, 4096]cuda:0" = torch.ops.aten.permute.default(arg8_1, [1, 0]);  arg8_1 = None
	        mm_3: "bf16[s72, 3072][3072, 1]cuda:0" = torch.ops.aten.mm.default(mul_57, permute_3);  mul_57 = permute_3 = None
	        
	        # File: /data/users/angelayi/vllm/vllm/model_executor/models/llama.py:241 in forward, code: q, k, v = qkv.split([self.q_size, self.kv_size, self.kv_size], dim=-1)
	        split_with_sizes = torch.ops.aten.split_with_sizes.default(mm_3, [2048, 512, 512], -1);  mm_3 = None
	        getitem: "bf16[s72, 2048][3072, 1]cuda:0" = split_with_sizes[0]
	        getitem_1: "bf16[s72, 512][3072, 1]cuda:0" = split_with_sizes[1]
	        getitem_2: "bf16[s72, 512][3072, 1]cuda:0" = split_with_sizes[2];  split_with_sizes = None
	        
	        # File: /data/users/angelayi/vllm/vllm/model_executor/layers/rotary_embedding/base.py:123 in forward_static, code: cos_sin = cos_sin_cache.index_select(0, positions)
	        index: "bf16[s72, 128][128, 1]cuda:0" = torch.ops.aten.index.Tensor(arg10_1, [arg9_1]);  arg10_1 = arg9_1 = None
	        
	        # File: /data/users/angelayi/vllm/vllm/model_executor/layers/rotary_embedding/base.py:124 in forward_static, code: cos, sin = cos_sin.chunk(2, dim=-1)
	        split = torch.ops.aten.split.Tensor(index, 64, -1);  index = None
	        getitem_3: "bf16[s72, 64][128, 1]cuda:0" = split[0]
	        getitem_4: "bf16[s72, 64][128, 1]cuda:0" = split[1];  split = None
	        
	        # File: /data/users/angelayi/vllm/vllm/model_executor/layers/rotary_embedding/base.py:127 in forward_static, code: query = query.view(num_tokens, -1, head_size)
	        view_1: "bf16[s72, 16, 128][3072, 128, 1]cuda:0" = torch.ops.aten.reshape.default(getitem, [arg1_1, -1, 128]);  getitem = None
	        
	        # File: /data/users/angelayi/vllm/vllm/model_executor/layers/rotary_embedding/common.py:164 in forward_static, code: x1, x2 = torch.chunk(x, 2, dim=-1)
	        split_1 = torch.ops.aten.split.Tensor(view_1, 64, -1);  view_1 = None
	        getitem_5: "bf16[s72, 16, 64][3072, 128, 1]cuda:0" = split_1[0]
	        getitem_6: "bf16[s72, 16, 64][3072, 128, 1]cuda:0" = split_1[1];  split_1 = None
	        
	        # File: /data/users/angelayi/vllm/vllm/model_executor/layers/rotary_embedding/base.py:141 in forward_static, code: key = key.view(num_tokens, -1, head_size)
	        view_3: "bf16[s72, 4, 128][3072, 128, 1]cuda:0" = torch.ops.aten.reshape.default(getitem_1, [arg1_1, -1, 128]);  getitem_1 = None
	        
	        # File: /data/users/angelayi/vllm/vllm/model_executor/layers/rotary_embedding/common.py:164 in forward_static, code: x1, x2 = torch.chunk(x, 2, dim=-1)
	        split_2 = torch.ops.aten.split.Tensor(view_3, 64, -1);  view_3 = None
	        getitem_7: "bf16[s72, 4, 64][3072, 128, 1]cuda:0" = split_2[0]
	        getitem_8: "bf16[s72, 4, 64][3072, 128, 1]cuda:0" = split_2[1];  split_2 = None
	        
	        # File: /data/users/angelayi/vllm/vllm/model_executor/layers/rotary_embedding/common.py:160 in forward_static, code: cos = cos.unsqueeze(-2).to(x.dtype)
	        unsqueeze: "bf16[s72, 1, 64][128, 64, 1]cuda:0" = torch.ops.aten.unsqueeze.default(getitem_3, -2)
	        
	        # File: /data/users/angelayi/vllm/vllm/model_executor/layers/rotary_embedding/common.py:169 in forward_static, code: o1 = x1 * cos - x2 * sin
	        mul_89: "bf16[s72, 16, 64][1024, 64, 1]cuda:0" = torch.ops.aten.mul.Tensor(getitem_5, unsqueeze)
	        
	        # File: /data/users/angelayi/vllm/vllm/model_executor/layers/rotary_embedding/common.py:161 in forward_static, code: sin = sin.unsqueeze(-2).to(x.dtype)
	        unsqueeze_1: "bf16[s72, 1, 64][128, 64, 1]cuda:0" = torch.ops.aten.unsqueeze.default(getitem_4, -2)
	        
	        # File: /data/users/angelayi/vllm/vllm/model_executor/layers/rotary_embedding/common.py:169 in forward_static, code: o1 = x1 * cos - x2 * sin
	        mul_92: "bf16[s72, 16, 64][1024, 64, 1]cuda:0" = torch.ops.aten.mul.Tensor(getitem_6, unsqueeze_1)
	        sub_46: "bf16[s72, 16, 64][1024, 64, 1]cuda:0" = torch.ops.aten.sub.Tensor(mul_89, mul_92);  mul_89 = mul_92 = None
	        
	        # File: /data/users/angelayi/vllm/vllm/model_executor/layers/rotary_embedding/common.py:170 in forward_static, code: o2 = x2 * cos + x1 * sin
	        mul_97: "bf16[s72, 16, 64][1024, 64, 1]cuda:0" = torch.ops.aten.mul.Tensor(getitem_6, unsqueeze);  getitem_6 = unsqueeze = None
	        mul_100: "bf16[s72, 16, 64][1024, 64, 1]cuda:0" = torch.ops.aten.mul.Tensor(getitem_5, unsqueeze_1);  getitem_5 = unsqueeze_1 = None
	        add_161: "bf16[s72, 16, 64][1024, 64, 1]cuda:0" = torch.ops.aten.add.Tensor(mul_97, mul_100);  mul_97 = mul_100 = None
	        
	        # File: /data/users/angelayi/vllm/vllm/model_executor/layers/rotary_embedding/common.py:173 in forward_static, code: output = torch.cat((o1, o2), dim=-1)
	        cat: "bf16[s72, 16, 128][2048, 128, 1]cuda:0" = torch.ops.aten.cat.default([sub_46, add_161], -1);  sub_46 = add_161 = None
	        
	        # File: /data/users/angelayi/vllm/vllm/model_executor/layers/rotary_embedding/common.py:160 in forward_static, code: cos = cos.unsqueeze(-2).to(x.dtype)
	        unsqueeze_2: "bf16[s72, 1, 64][128, 64, 1]cuda:0" = torch.ops.aten.unsqueeze.default(getitem_3, -2);  getitem_3 = None
	        
	        # File: /data/users/angelayi/vllm/vllm/model_executor/layers/rotary_embedding/common.py:169 in forward_static, code: o1 = x1 * cos - x2 * sin
	        mul_128: "bf16[s72, 4, 64][256, 64, 1]cuda:0" = torch.ops.aten.mul.Tensor(getitem_7, unsqueeze_2)
	        
	        # File: /data/users/angelayi/vllm/vllm/model_executor/layers/rotary_embedding/common.py:161 in forward_static, code: sin = sin.unsqueeze(-2).to(x.dtype)
	        unsqueeze_3: "bf16[s72, 1, 64][128, 64, 1]cuda:0" = torch.ops.aten.unsqueeze.default(getitem_4, -2);  getitem_4 = None
	        
	        # File: /data/users/angelayi/vllm/vllm/model_executor/layers/rotary_embedding/common.py:169 in forward_static, code: o1 = x1 * cos - x2 * sin
	        mul_131: "bf16[s72, 4, 64][256, 64, 1]cuda:0" = torch.ops.aten.mul.Tensor(getitem_8, unsqueeze_3)
	        sub_63: "bf16[s72, 4, 64][256, 64, 1]cuda:0" = torch.ops.aten.sub.Tensor(mul_128, mul_131);  mul_128 = mul_131 = None
	        
	        # File: /data/users/angelayi/vllm/vllm/model_executor/layers/rotary_embedding/common.py:170 in forward_static, code: o2 = x2 * cos + x1 * sin
	        mul_136: "bf16[s72, 4, 64][256, 64, 1]cuda:0" = torch.ops.aten.mul.Tensor(getitem_8, unsqueeze_2);  getitem_8 = unsqueeze_2 = None
	        mul_139: "bf16[s72, 4, 64][256, 64, 1]cuda:0" = torch.ops.aten.mul.Tensor(getitem_7, unsqueeze_3);  getitem_7 = unsqueeze_3 = None
	        add_223: "bf16[s72, 4, 64][256, 64, 1]cuda:0" = torch.ops.aten.add.Tensor(mul_136, mul_139);  mul_136 = mul_139 = None
	        
	        # File: /data/users/angelayi/vllm/vllm/model_executor/layers/rotary_embedding/common.py:173 in forward_static, code: output = torch.cat((o1, o2), dim=-1)
	        cat_1: "bf16[s72, 4, 128][512, 128, 1]cuda:0" = torch.ops.aten.cat.default([sub_63, add_223], -1);  sub_63 = add_223 = None
	        
	        # File: /data/users/angelayi/vllm/vllm/attention/layer.py:336 in forward, code: value = value.view(-1, self.num_kv_heads, self.head_size)
	        view_8: "bf16[s72, 4, 128][3072, 128, 1]cuda:0" = torch.ops.aten.reshape.default(getitem_2, [-1, 4, 128]);  getitem_2 = None
	        
	        # File: /data/users/angelayi/vllm/vllm/attention/layer.py:326 in forward, code: output = torch.empty(output_shape, dtype=output_dtype, device=query.device)
	        empty: "bf16[s72, 2048][2048, 1]cuda:0" = torch.ops.aten.empty.memory_format([arg1_1, 2048], dtype = torch.bfloat16, device = device(type='cuda', index=0), pin_memory = False);  arg1_1 = None
	        
	        # File: /data/users/angelayi/vllm/vllm/attention/layer.py:332 in forward, code: output = output.view(-1, self.num_heads, self.head_size)
	        view_6: "bf16[s72, 16, 128][2048, 128, 1]cuda:0" = torch.ops.aten.reshape.default(empty, [-1, 16, 128]);  empty = None
	        
	        # File: /data/users/angelayi/vllm/vllm/model_executor/layers/layernorm.py:148 in forward_static, code: residual = x.to(orig_dtype)
	        convert_element_type_12: "bf16[s72, 4096][4096, 1]cuda:0" = torch.ops.prims.convert_element_type.default(add_65, torch.bfloat16);  add_65 = None
	        return (cat, cat_1, view_8, view_6, convert_element_type_12)
	        
V0127 17:17:56.779000 1175001 /data/users/angelayi/vllm/vllm/compilation/piecewise_backend.py:142] {"artifact": {"name": "vllm_piecewise_compile_start", "encoding": "json"}, "rank": 0, "stack": [{"line": 1, "name": "<module>", "filename": 1, "loc": ""}, {"line": 122, "name": "spawn_main", "filename": 2, "loc": "exitcode = _main(fd, parent_sentinel)"}, {"line": 135, "name": "_main", "filename": 2, "loc": "return self._bootstrap(parent_sentinel)"}, {"line": 314, "name": "_bootstrap", "filename": 3, "loc": "self.run()"}, {"line": 108, "name": "run", "filename": 3, "loc": "self._target(*self._args, **self._kwargs)"}, {"line": 742, "name": "worker_main", "filename": 4, "loc": "worker.worker_busy_loop(cancel=shutdown_event)"}, {"line": 819, "name": "worker_busy_loop", "filename": 4, "loc": "output = func(*args, **kwargs)"}, {"line": 459, "name": "compile_or_warm_up_model", "filename": 6, "loc": "cuda_graph_memory_bytes = self.model_runner.capture_model()"}, {"line": 4582, "name": "capture_model", "filename": 7, "loc": "self._capture_cudagraphs("}, {"line": 4683, "name": "_capture_cudagraphs", "filename": 7, "loc": "self._dummy_run("}, {"line": 124, "name": "decorate_context", "filename": 5, "loc": "return func(*args, **kwargs)"}, {"line": 4217, "name": "_dummy_run", "filename": 7, "loc": "outputs = self.model("}, {"line": 220, "name": "__call__", "filename": 8, "loc": "return self.runnable(*args, **kwargs)"}, {"line": 1776, "name": "_wrapped_call_impl", "filename": 9, "loc": "return self._call_impl(*args, **kwargs)"}, {"line": 1787, "name": "_call_impl", "filename": 9, "loc": "return forward_call(*args, **kwargs)"}, {"line": 623, "name": "forward", "filename": 10, "loc": "model_output = self.model("}, {"line": 439, "name": "__call__", "filename": 11, "loc": "return TorchCompileWithNoGuardsWrapper.__call__(self, *args, **kwargs)"}, {"line": 223, "name": "__call__", "filename": 12, "loc": "return self._call_with_optional_nvtx_range("}, {"line": 109, "name": "_call_with_optional_nvtx_range", "filename": 12, "loc": "return callable_fn(*args, **kwargs)"}, {"line": 412, "name": "forward", "filename": 10, "loc": "def forward("}, {"line": 1181, "name": "_fn", "filename": 16, "loc": "return fn(*args, **kwargs)"}, {"line": 54, "name": "__call__", "filename": 44, "loc": "return self.optimized_call(*args, **kwargs)"}, {"line": 936, "name": "call_wrapped", "filename": 45, "loc": "return self._wrapped_call(self, *args, **kwargs)"}, {"line": 442, "name": "__call__", "filename": 45, "loc": "return super(self.cls, obj).__call__(*args, **kwargs)  # type: ignore[misc]"}, {"line": 1776, "name": "_wrapped_call_impl", "filename": 9, "loc": "return self._call_impl(*args, **kwargs)"}, {"line": 1787, "name": "_call_impl", "filename": 9, "loc": "return forward_call(*args, **kwargs)"}, {"line": 202, "name": "forward", "filename": 46, "loc": "submod_0 = self.submod_0(l_input_ids_, s72, l_self_modules_embed_tokens_parameters_weight_, l_self_modules_layers_modules_0_modules_input_layernorm_parameters_weight_, l_self_modules_layers_modules_0_modules_self_attn_modules_qkv_proj_parameters_weight_, l_positions_, l_self_modules_layers_modules_0_modules_self_attn_modules_rotary_emb_buffers_cos_sin_cache_);  l_input_ids_ = l_self_modules_embed_tokens_parameters_weight_ = l_self_modules_layers_modules_0_modules_input_layernorm_parameters_weight_ = l_self_modules_layers_modules_0_modules_self_attn_modules_qkv_proj_parameters_weight_ = None"}, {"line": 220, "name": "__call__", "filename": 8, "loc": "return self.runnable(*args, **kwargs)"}, {"line": 222, "name": "__call__", "filename": 47, "loc": "self._maybe_compile_for_range_entry(range_entry, args)"}, {"line": 178, "name": "_maybe_compile_for_range_entry", "filename": 47, "loc": "self._log_compile_start(range_entry.compile_range)"}, {"line": 142, "name": "_log_compile_start", "filename": 47, "loc": "trace_structured("}], "has_payload": "17fa2874645a622d8f44fb15fe28352f"}
	{"piecewise_index": 0, "submod_name": "submod_0", "total_piecewise_compiles": 33, "compile_range_start": 8, "compile_range_end": 8, "is_single_size": true, "is_cudagraph_capture_size": true}
V0127 17:17:56.874000 1175001 /data/users/angelayi/vllm/vllm/compilation/piecewise_backend.py:142] {"artifact": {"name": "vllm_piecewise_compile_start", "encoding": "json"}, "rank": 0, "stack": [{"line": 1, "name": "<module>", "filename": 1, "loc": ""}, {"line": 122, "name": "spawn_main", "filename": 2, "loc": "exitcode = _main(fd, parent_sentinel)"}, {"line": 135, "name": "_main", "filename": 2, "loc": "return self._bootstrap(parent_sentinel)"}, {"line": 314, "name": "_bootstrap", "filename": 3, "loc": "self.run()"}, {"line": 108, "name": "run", "filename": 3, "loc": "self._target(*self._args, **self._kwargs)"}, {"line": 742, "name": "worker_main", "filename": 4, "loc": "worker.worker_busy_loop(cancel=shutdown_event)"}, {"line": 819, "name": "worker_busy_loop", "filename": 4, "loc": "output = func(*args, **kwargs)"}, {"line": 459, "name": "compile_or_warm_up_model", "filename": 6, "loc": "cuda_graph_memory_bytes = self.model_runner.capture_model()"}, {"line": 4582, "name": "capture_model", "filename": 7, "loc": "self._capture_cudagraphs("}, {"line": 4683, "name": "_capture_cudagraphs", "filename": 7, "loc": "self._dummy_run("}, {"line": 124, "name": "decorate_context", "filename": 5, "loc": "return func(*args, **kwargs)"}, {"line": 4217, "name": "_dummy_run", "filename": 7, "loc": "outputs = self.model("}, {"line": 220, "name": "__call__", "filename": 8, "loc": "return self.runnable(*args, **kwargs)"}, {"line": 1776, "name": "_wrapped_call_impl", "filename": 9, "loc": "return self._call_impl(*args, **kwargs)"}, {"line": 1787, "name": "_call_impl", "filename": 9, "loc": "return forward_call(*args, **kwargs)"}, {"line": 623, "name": "forward", "filename": 10, "loc": "model_output = self.model("}, {"line": 439, "name": "__call__", "filename": 11, "loc": "return TorchCompileWithNoGuardsWrapper.__call__(self, *args, **kwargs)"}, {"line": 223, "name": "__call__", "filename": 12, "loc": "return self._call_with_optional_nvtx_range("}, {"line": 109, "name": "_call_with_optional_nvtx_range", "filename": 12, "loc": "return callable_fn(*args, **kwargs)"}, {"line": 412, "name": "forward", "filename": 10, "loc": "def forward("}, {"line": 1181, "name": "_fn", "filename": 16, "loc": "return fn(*args, **kwargs)"}, {"line": 54, "name": "__call__", "filename": 44, "loc": "return self.optimized_call(*args, **kwargs)"}, {"line": 936, "name": "call_wrapped", "filename": 45, "loc": "return self._wrapped_call(self, *args, **kwargs)"}, {"line": 442, "name": "__call__", "filename": 45, "loc": "return super(self.cls, obj).__call__(*args, **kwargs)  # type: ignore[misc]"}, {"line": 1776, "name": "_wrapped_call_impl", "filename": 9, "loc": "return self._call_impl(*args, **kwargs)"}, {"line": 1787, "name": "_call_impl", "filename": 9, "loc": "return forward_call(*args, **kwargs)"}, {"line": 209, "name": "forward", "filename": 46, "loc": "submod_2 = self.submod_2(getitem_3, s72, l_self_modules_layers_modules_0_modules_self_attn_modules_o_proj_parameters_weight_, l_self_modules_layers_modules_0_modules_post_attention_layernorm_parameters_weight_, getitem_4, l_self_modules_layers_modules_0_modules_mlp_modules_gate_up_proj_parameters_weight_, l_self_modules_layers_modules_0_modules_mlp_modules_down_proj_parameters_weight_, l_self_modules_layers_modules_1_modules_input_layernorm_parameters_weight_, l_self_modules_layers_modules_1_modules_self_attn_modules_qkv_proj_parameters_weight_, l_positions_, l_self_modules_layers_modules_0_modules_self_attn_modules_rotary_emb_buffers_cos_sin_cache_);  getitem_3 = l_self_modules_layers_modules_0_modules_self_attn_modules_o_proj_parameters_weight_ = l_self_modules_layers_modules_0_modules_post_attention_layernorm_parameters_weight_ = getitem_4 = l_self_modules_layers_modules_0_modules_mlp_modules_gate_up_proj_parameters_weight_ = l_self_modules_layers_modules_0_modules_mlp_modules_down_proj_parameters_weight_ = l_self_modules_layers_modules_1_modules_input_layernorm_parameters_weight_ = l_self_modules_layers_modules_1_modules_self_attn_modules_qkv_proj_parameters_weight_ = None"}, {"line": 220, "name": "__call__", "filename": 8, "loc": "return self.runnable(*args, **kwargs)"}, {"line": 222, "name": "__call__", "filename": 47, "loc": "self._maybe_compile_for_range_entry(range_entry, args)"}, {"line": 178, "name": "_maybe_compile_for_range_entry", "filename": 47, "loc": "self._log_compile_start(range_entry.compile_range)"}, {"line": 142, "name": "_log_compile_start", "filename": 47, "loc": "trace_structured("}], "has_payload": "6be2b0589586022698956f5b2af9e2fb"}
	{"piecewise_index": 1, "submod_name": "submod_2", "total_piecewise_compiles": 33, "compile_range_start": 8, "compile_range_end": 8, "is_single_size": true, "is_cudagraph_capture_size": true}
